{"format": "graph-model", "generatedBy": "2.15.1", "convertedBy": "TensorFlow.js Converter v3.21.0", "signature": {"inputs": {"input_lat:0": {"name": "input_lat:0", "dtype": "DT_FLOAT", "tensorShape": {"dim": [{"size": "-1"}, {"size": "224"}, {"size": "224"}, {"size": "3"}]}}, "input_ob:0": {"name": "input_ob:0", "dtype": "DT_FLOAT", "tensorShape": {"dim": [{"size": "-1"}, {"size": "224"}, {"size": "224"}, {"size": "3"}]}}, "input_ap:0": {"name": "input_ap:0", "dtype": "DT_FLOAT", "tensorShape": {"dim": [{"size": "-1"}, {"size": "224"}, {"size": "224"}, {"size": "3"}]}}}, "outputs": {"output": {"name": "Identity:0", "dtype": "DT_FLOAT", "tensorShape": {"dim": [{"size": "-1"}, {"size": "1"}]}}}}, "modelTopology": {"node": [{"name": "StatefulPartitionedCall/model/ap_zero_padding2d/Pad/paddings", "op": "Const", "attr": {"dtype": {"type": "DT_INT32"}, "value": {"tensor": {"dtype": "DT_INT32", "tensorShape": {"dim": [{"size": "4"}, {"size": "2"}]}}}}}, {"name": "StatefulPartitionedCall/model/ap_zero_padding2d_1/Pad/paddings", "op": "Const", "attr": {"value": {"tensor": {"dtype": "DT_INT32", "tensorShape": {"dim": [{"size": "4"}, {"size": "2"}]}}}, "dtype": {"type": "DT_INT32"}}}, {"name": "StatefulPartitionedCall/model/ap_conv2_block1_2_conv/Conv2D/ReadVariableOp", "op": "Const", "attr": {"value": {"tensor": {"dtype": "DT_FLOAT", "tensorShape": {"dim": [{"size": "3"}, {"size": "3"}, {"size": "128"}, {"size": "32"}]}}}, "dtype": {"type": "DT_FLOAT"}}}, {"name": "StatefulPartitionedCall/model/ap_conv2_block1_concat/concat/axis", "op": "Const", "attr": {"value": {"tensor": {"dtype": "DT_INT32", "tensorShape": {}}}, "dtype": {"type": "DT_INT32"}}}, {"name": "StatefulPartitionedCall/model/ap_conv2_block2_2_conv/Conv2D/ReadVariableOp", "op": "Const", "attr": {"dtype": {"type": "DT_FLOAT"}, "value": {"tensor": {"dtype": "DT_FLOAT", "tensorShape": {"dim": [{"size": "3"}, {"size": "3"}, {"size": "128"}, {"size": "32"}]}}}}}, {"name": "StatefulPartitionedCall/model/ap_conv2_block2_concat/concat/axis", "op": "Const", "attr": {"value": {"tensor": {"dtype": "DT_INT32", "tensorShape": {}}}, "dtype": {"type": "DT_INT32"}}}, {"name": "StatefulPartitionedCall/model/ap_conv2_block3_2_conv/Conv2D/ReadVariableOp", "op": "Const", "attr": {"value": {"tensor": {"dtype": "DT_FLOAT", "tensorShape": {"dim": [{"size": "3"}, {"size": "3"}, {"size": "128"}, {"size": "32"}]}}}, "dtype": {"type": "DT_FLOAT"}}}, {"name": "StatefulPartitionedCall/model/ap_conv2_block3_concat/concat/axis", "op": "Const", "attr": {"value": {"tensor": {"dtype": "DT_INT32", "tensorShape": {}}}, "dtype": {"type": "DT_INT32"}}}, {"name": "StatefulPartitionedCall/model/ap_conv2_block4_2_conv/Conv2D/ReadVariableOp", "op": "Const", "attr": {"dtype": {"type": "DT_FLOAT"}, "value": {"tensor": {"dtype": "DT_FLOAT", "tensorShape": {"dim": [{"size": "3"}, {"size": "3"}, {"size": "128"}, {"size": "32"}]}}}}}, {"name": "StatefulPartitionedCall/model/ap_conv2_block4_concat/concat/axis", "op": "Const", "attr": {"dtype": {"type": "DT_INT32"}, "value": {"tensor": {"dtype": "DT_INT32", "tensorShape": {}}}}}, {"name": "StatefulPartitionedCall/model/ap_conv2_block5_2_conv/Conv2D/ReadVariableOp", "op": "Const", "attr": {"value": {"tensor": {"dtype": "DT_FLOAT", "tensorShape": {"dim": [{"size": "3"}, {"size": "3"}, {"size": "128"}, {"size": "32"}]}}}, "dtype": {"type": "DT_FLOAT"}}}, {"name": "StatefulPartitionedCall/model/ap_conv2_block5_concat/concat/axis", "op": "Const", "attr": {"value": {"tensor": {"dtype": "DT_INT32", "tensorShape": {}}}, "dtype": {"type": "DT_INT32"}}}, {"name": "StatefulPartitionedCall/model/ap_conv2_block6_2_conv/Conv2D/ReadVariableOp", "op": "Const", "attr": {"value": {"tensor": {"dtype": "DT_FLOAT", "tensorShape": {"dim": [{"size": "3"}, {"size": "3"}, {"size": "128"}, {"size": "32"}]}}}, "dtype": {"type": "DT_FLOAT"}}}, {"name": "StatefulPartitionedCall/model/ap_conv2_block6_concat/concat/axis", "op": "Const", "attr": {"dtype": {"type": "DT_INT32"}, "value": {"tensor": {"dtype": "DT_INT32", "tensorShape": {}}}}}, {"name": "StatefulPartitionedCall/model/ap_pool2_conv/Conv2D/ReadVariableOp", "op": "Const", "attr": {"value": {"tensor": {"dtype": "DT_FLOAT", "tensorShape": {"dim": [{"size": "1"}, {"size": "1"}, {"size": "256"}, {"size": "128"}]}}}, "dtype": {"type": "DT_FLOAT"}}}, {"name": "StatefulPartitionedCall/model/ap_conv3_block1_2_conv/Conv2D/ReadVariableOp", "op": "Const", "attr": {"dtype": {"type": "DT_FLOAT"}, "value": {"tensor": {"dtype": "DT_FLOAT", "tensorShape": {"dim": [{"size": "3"}, {"size": "3"}, {"size": "128"}, {"size": "32"}]}}}}}, {"name": "StatefulPartitionedCall/model/ap_conv3_block1_concat/concat/axis", "op": "Const", "attr": {"value": {"tensor": {"dtype": "DT_INT32", "tensorShape": {}}}, "dtype": {"type": "DT_INT32"}}}, {"name": "StatefulPartitionedCall/model/ap_conv3_block2_2_conv/Conv2D/ReadVariableOp", "op": "Const", "attr": {"value": {"tensor": {"dtype": "DT_FLOAT", "tensorShape": {"dim": [{"size": "3"}, {"size": "3"}, {"size": "128"}, {"size": "32"}]}}}, "dtype": {"type": "DT_FLOAT"}}}, {"name": "StatefulPartitionedCall/model/ap_conv3_block2_concat/concat/axis", "op": "Const", "attr": {"value": {"tensor": {"dtype": "DT_INT32", "tensorShape": {}}}, "dtype": {"type": "DT_INT32"}}}, {"name": "StatefulPartitionedCall/model/ap_conv3_block3_2_conv/Conv2D/ReadVariableOp", "op": "Const", "attr": {"dtype": {"type": "DT_FLOAT"}, "value": {"tensor": {"dtype": "DT_FLOAT", "tensorShape": {"dim": [{"size": "3"}, {"size": "3"}, {"size": "128"}, {"size": "32"}]}}}}}, {"name": "StatefulPartitionedCall/model/ap_conv3_block3_concat/concat/axis", "op": "Const", "attr": {"value": {"tensor": {"dtype": "DT_INT32", "tensorShape": {}}}, "dtype": {"type": "DT_INT32"}}}, {"name": "StatefulPartitionedCall/model/ap_conv3_block4_2_conv/Conv2D/ReadVariableOp", "op": "Const", "attr": {"dtype": {"type": "DT_FLOAT"}, "value": {"tensor": {"dtype": "DT_FLOAT", "tensorShape": {"dim": [{"size": "3"}, {"size": "3"}, {"size": "128"}, {"size": "32"}]}}}}}, {"name": "StatefulPartitionedCall/model/ap_conv3_block4_concat/concat/axis", "op": "Const", "attr": {"dtype": {"type": "DT_INT32"}, "value": {"tensor": {"dtype": "DT_INT32", "tensorShape": {}}}}}, {"name": "StatefulPartitionedCall/model/ap_conv3_block5_2_conv/Conv2D/ReadVariableOp", "op": "Const", "attr": {"dtype": {"type": "DT_FLOAT"}, "value": {"tensor": {"dtype": "DT_FLOAT", "tensorShape": {"dim": [{"size": "3"}, {"size": "3"}, {"size": "128"}, {"size": "32"}]}}}}}, {"name": "StatefulPartitionedCall/model/ap_conv3_block5_concat/concat/axis", "op": "Const", "attr": {"value": {"tensor": {"dtype": "DT_INT32", "tensorShape": {}}}, "dtype": {"type": "DT_INT32"}}}, {"name": "StatefulPartitionedCall/model/ap_conv3_block6_2_conv/Conv2D/ReadVariableOp", "op": "Const", "attr": {"dtype": {"type": "DT_FLOAT"}, "value": {"tensor": {"dtype": "DT_FLOAT", "tensorShape": {"dim": [{"size": "3"}, {"size": "3"}, {"size": "128"}, {"size": "32"}]}}}}}, {"name": "StatefulPartitionedCall/model/ap_conv3_block6_concat/concat/axis", "op": "Const", "attr": {"dtype": {"type": "DT_INT32"}, "value": {"tensor": {"dtype": "DT_INT32", "tensorShape": {}}}}}, {"name": "StatefulPartitionedCall/model/ap_conv3_block7_2_conv/Conv2D/ReadVariableOp", "op": "Const", "attr": {"value": {"tensor": {"dtype": "DT_FLOAT", "tensorShape": {"dim": [{"size": "3"}, {"size": "3"}, {"size": "128"}, {"size": "32"}]}}}, "dtype": {"type": "DT_FLOAT"}}}, {"name": "StatefulPartitionedCall/model/ap_conv3_block7_concat/concat/axis", "op": "Const", "attr": {"value": {"tensor": {"dtype": "DT_INT32", "tensorShape": {}}}, "dtype": {"type": "DT_INT32"}}}, {"name": "StatefulPartitionedCall/model/ap_conv3_block8_2_conv/Conv2D/ReadVariableOp", "op": "Const", "attr": {"dtype": {"type": "DT_FLOAT"}, "value": {"tensor": {"dtype": "DT_FLOAT", "tensorShape": {"dim": [{"size": "3"}, {"size": "3"}, {"size": "128"}, {"size": "32"}]}}}}}, {"name": "StatefulPartitionedCall/model/ap_conv3_block8_concat/concat/axis", "op": "Const", "attr": {"value": {"tensor": {"dtype": "DT_INT32", "tensorShape": {}}}, "dtype": {"type": "DT_INT32"}}}, {"name": "StatefulPartitionedCall/model/ap_conv3_block9_2_conv/Conv2D/ReadVariableOp", "op": "Const", "attr": {"value": {"tensor": {"dtype": "DT_FLOAT", "tensorShape": {"dim": [{"size": "3"}, {"size": "3"}, {"size": "128"}, {"size": "32"}]}}}, "dtype": {"type": "DT_FLOAT"}}}, {"name": "StatefulPartitionedCall/model/ap_conv3_block9_concat/concat/axis", "op": "Const", "attr": {"dtype": {"type": "DT_INT32"}, "value": {"tensor": {"dtype": "DT_INT32", "tensorShape": {}}}}}, {"name": "StatefulPartitionedCall/model/ap_conv3_block10_2_conv/Conv2D/ReadVariableOp", "op": "Const", "attr": {"value": {"tensor": {"dtype": "DT_FLOAT", "tensorShape": {"dim": [{"size": "3"}, {"size": "3"}, {"size": "128"}, {"size": "32"}]}}}, "dtype": {"type": "DT_FLOAT"}}}, {"name": "StatefulPartitionedCall/model/ap_conv3_block10_concat/concat/axis", "op": "Const", "attr": {"value": {"tensor": {"dtype": "DT_INT32", "tensorShape": {}}}, "dtype": {"type": "DT_INT32"}}}, {"name": "StatefulPartitionedCall/model/ap_conv3_block11_2_conv/Conv2D/ReadVariableOp", "op": "Const", "attr": {"dtype": {"type": "DT_FLOAT"}, "value": {"tensor": {"dtype": "DT_FLOAT", "tensorShape": {"dim": [{"size": "3"}, {"size": "3"}, {"size": "128"}, {"size": "32"}]}}}}}, {"name": "StatefulPartitionedCall/model/ap_conv3_block11_concat/concat/axis", "op": "Const", "attr": {"dtype": {"type": "DT_INT32"}, "value": {"tensor": {"dtype": "DT_INT32", "tensorShape": {}}}}}, {"name": "StatefulPartitionedCall/model/ap_conv3_block12_2_conv/Conv2D/ReadVariableOp", "op": "Const", "attr": {"value": {"tensor": {"dtype": "DT_FLOAT", "tensorShape": {"dim": [{"size": "3"}, {"size": "3"}, {"size": "128"}, {"size": "32"}]}}}, "dtype": {"type": "DT_FLOAT"}}}, {"name": "StatefulPartitionedCall/model/ap_conv3_block12_concat/concat/axis", "op": "Const", "attr": {"value": {"tensor": {"dtype": "DT_INT32", "tensorShape": {}}}, "dtype": {"type": "DT_INT32"}}}, {"name": "StatefulPartitionedCall/model/ap_pool3_conv/Conv2D/ReadVariableOp", "op": "Const", "attr": {"value": {"tensor": {"dtype": "DT_FLOAT", "tensorShape": {"dim": [{"size": "1"}, {"size": "1"}, {"size": "512"}, {"size": "256"}]}}}, "dtype": {"type": "DT_FLOAT"}}}, {"name": "StatefulPartitionedCall/model/ap_conv4_block1_2_conv/Conv2D/ReadVariableOp", "op": "Const", "attr": {"value": {"tensor": {"dtype": "DT_FLOAT", "tensorShape": {"dim": [{"size": "3"}, {"size": "3"}, {"size": "128"}, {"size": "32"}]}}}, "dtype": {"type": "DT_FLOAT"}}}, {"name": "StatefulPartitionedCall/model/ap_conv4_block1_concat/concat/axis", "op": "Const", "attr": {"dtype": {"type": "DT_INT32"}, "value": {"tensor": {"dtype": "DT_INT32", "tensorShape": {}}}}}, {"name": "StatefulPartitionedCall/model/ap_conv4_block2_2_conv/Conv2D/ReadVariableOp", "op": "Const", "attr": {"value": {"tensor": {"dtype": "DT_FLOAT", "tensorShape": {"dim": [{"size": "3"}, {"size": "3"}, {"size": "128"}, {"size": "32"}]}}}, "dtype": {"type": "DT_FLOAT"}}}, {"name": "StatefulPartitionedCall/model/ap_conv4_block2_concat/concat/axis", "op": "Const", "attr": {"value": {"tensor": {"dtype": "DT_INT32", "tensorShape": {}}}, "dtype": {"type": "DT_INT32"}}}, {"name": "StatefulPartitionedCall/model/ap_conv4_block3_2_conv/Conv2D/ReadVariableOp", "op": "Const", "attr": {"dtype": {"type": "DT_FLOAT"}, "value": {"tensor": {"dtype": "DT_FLOAT", "tensorShape": {"dim": [{"size": "3"}, {"size": "3"}, {"size": "128"}, {"size": "32"}]}}}}}, {"name": "StatefulPartitionedCall/model/ap_conv4_block3_concat/concat/axis", "op": "Const", "attr": {"value": {"tensor": {"dtype": "DT_INT32", "tensorShape": {}}}, "dtype": {"type": "DT_INT32"}}}, {"name": "StatefulPartitionedCall/model/ap_conv4_block4_2_conv/Conv2D/ReadVariableOp", "op": "Const", "attr": {"value": {"tensor": {"dtype": "DT_FLOAT", "tensorShape": {"dim": [{"size": "3"}, {"size": "3"}, {"size": "128"}, {"size": "32"}]}}}, "dtype": {"type": "DT_FLOAT"}}}, {"name": "StatefulPartitionedCall/model/ap_conv4_block4_concat/concat/axis", "op": "Const", "attr": {"value": {"tensor": {"dtype": "DT_INT32", "tensorShape": {}}}, "dtype": {"type": "DT_INT32"}}}, {"name": "StatefulPartitionedCall/model/ap_conv4_block5_2_conv/Conv2D/ReadVariableOp", "op": "Const", "attr": {"dtype": {"type": "DT_FLOAT"}, "value": {"tensor": {"dtype": "DT_FLOAT", "tensorShape": {"dim": [{"size": "3"}, {"size": "3"}, {"size": "128"}, {"size": "32"}]}}}}}, {"name": "StatefulPartitionedCall/model/ap_conv4_block5_concat/concat/axis", "op": "Const", "attr": {"dtype": {"type": "DT_INT32"}, "value": {"tensor": {"dtype": "DT_INT32", "tensorShape": {}}}}}, {"name": "StatefulPartitionedCall/model/ap_conv4_block6_2_conv/Conv2D/ReadVariableOp", "op": "Const", "attr": {"value": {"tensor": {"dtype": "DT_FLOAT", "tensorShape": {"dim": [{"size": "3"}, {"size": "3"}, {"size": "128"}, {"size": "32"}]}}}, "dtype": {"type": "DT_FLOAT"}}}, {"name": "StatefulPartitionedCall/model/ap_conv4_block6_concat/concat/axis", "op": "Const", "attr": {"value": {"tensor": {"dtype": "DT_INT32", "tensorShape": {}}}, "dtype": {"type": "DT_INT32"}}}, {"name": "StatefulPartitionedCall/model/ap_conv4_block7_2_conv/Conv2D/ReadVariableOp", "op": "Const", "attr": {"dtype": {"type": "DT_FLOAT"}, "value": {"tensor": {"dtype": "DT_FLOAT", "tensorShape": {"dim": [{"size": "3"}, {"size": "3"}, {"size": "128"}, {"size": "32"}]}}}}}, {"name": "StatefulPartitionedCall/model/ap_conv4_block7_concat/concat/axis", "op": "Const", "attr": {"dtype": {"type": "DT_INT32"}, "value": {"tensor": {"dtype": "DT_INT32", "tensorShape": {}}}}}, {"name": "StatefulPartitionedCall/model/ap_conv4_block8_2_conv/Conv2D/ReadVariableOp", "op": "Const", "attr": {"dtype": {"type": "DT_FLOAT"}, "value": {"tensor": {"dtype": "DT_FLOAT", "tensorShape": {"dim": [{"size": "3"}, {"size": "3"}, {"size": "128"}, {"size": "32"}]}}}}}, {"name": "StatefulPartitionedCall/model/ap_conv4_block8_concat/concat/axis", "op": "Const", "attr": {"value": {"tensor": {"dtype": "DT_INT32", "tensorShape": {}}}, "dtype": {"type": "DT_INT32"}}}, {"name": "StatefulPartitionedCall/model/ap_conv4_block9_2_conv/Conv2D/ReadVariableOp", "op": "Const", "attr": {"value": {"tensor": {"dtype": "DT_FLOAT", "tensorShape": {"dim": [{"size": "3"}, {"size": "3"}, {"size": "128"}, {"size": "32"}]}}}, "dtype": {"type": "DT_FLOAT"}}}, {"name": "StatefulPartitionedCall/model/ap_conv4_block9_concat/concat/axis", "op": "Const", "attr": {"dtype": {"type": "DT_INT32"}, "value": {"tensor": {"dtype": "DT_INT32", "tensorShape": {}}}}}, {"name": "StatefulPartitionedCall/model/ap_conv4_block10_2_conv/Conv2D/ReadVariableOp", "op": "Const", "attr": {"value": {"tensor": {"dtype": "DT_FLOAT", "tensorShape": {"dim": [{"size": "3"}, {"size": "3"}, {"size": "128"}, {"size": "32"}]}}}, "dtype": {"type": "DT_FLOAT"}}}, {"name": "StatefulPartitionedCall/model/ap_conv4_block10_concat/concat/axis", "op": "Const", "attr": {"dtype": {"type": "DT_INT32"}, "value": {"tensor": {"dtype": "DT_INT32", "tensorShape": {}}}}}, {"name": "StatefulPartitionedCall/model/ap_conv4_block11_2_conv/Conv2D/ReadVariableOp", "op": "Const", "attr": {"value": {"tensor": {"dtype": "DT_FLOAT", "tensorShape": {"dim": [{"size": "3"}, {"size": "3"}, {"size": "128"}, {"size": "32"}]}}}, "dtype": {"type": "DT_FLOAT"}}}, {"name": "StatefulPartitionedCall/model/ap_conv4_block11_concat/concat/axis", "op": "Const", "attr": {"value": {"tensor": {"dtype": "DT_INT32", "tensorShape": {}}}, "dtype": {"type": "DT_INT32"}}}, {"name": "StatefulPartitionedCall/model/ap_conv4_block12_2_conv/Conv2D/ReadVariableOp", "op": "Const", "attr": {"value": {"tensor": {"dtype": "DT_FLOAT", "tensorShape": {"dim": [{"size": "3"}, {"size": "3"}, {"size": "128"}, {"size": "32"}]}}}, "dtype": {"type": "DT_FLOAT"}}}, {"name": "StatefulPartitionedCall/model/ap_conv4_block12_concat/concat/axis", "op": "Const", "attr": {"value": {"tensor": {"dtype": "DT_INT32", "tensorShape": {}}}, "dtype": {"type": "DT_INT32"}}}, {"name": "StatefulPartitionedCall/model/ap_conv4_block13_2_conv/Conv2D/ReadVariableOp", "op": "Const", "attr": {"value": {"tensor": {"dtype": "DT_FLOAT", "tensorShape": {"dim": [{"size": "3"}, {"size": "3"}, {"size": "128"}, {"size": "32"}]}}}, "dtype": {"type": "DT_FLOAT"}}}, {"name": "StatefulPartitionedCall/model/ap_conv4_block13_concat/concat/axis", "op": "Const", "attr": {"value": {"tensor": {"dtype": "DT_INT32", "tensorShape": {}}}, "dtype": {"type": "DT_INT32"}}}, {"name": "StatefulPartitionedCall/model/ap_conv4_block14_2_conv/Conv2D/ReadVariableOp", "op": "Const", "attr": {"value": {"tensor": {"dtype": "DT_FLOAT", "tensorShape": {"dim": [{"size": "3"}, {"size": "3"}, {"size": "128"}, {"size": "32"}]}}}, "dtype": {"type": "DT_FLOAT"}}}, {"name": "StatefulPartitionedCall/model/ap_conv4_block14_concat/concat/axis", "op": "Const", "attr": {"value": {"tensor": {"dtype": "DT_INT32", "tensorShape": {}}}, "dtype": {"type": "DT_INT32"}}}, {"name": "StatefulPartitionedCall/model/ap_conv4_block15_2_conv/Conv2D/ReadVariableOp", "op": "Const", "attr": {"value": {"tensor": {"dtype": "DT_FLOAT", "tensorShape": {"dim": [{"size": "3"}, {"size": "3"}, {"size": "128"}, {"size": "32"}]}}}, "dtype": {"type": "DT_FLOAT"}}}, {"name": "StatefulPartitionedCall/model/ap_conv4_block15_concat/concat/axis", "op": "Const", "attr": {"value": {"tensor": {"dtype": "DT_INT32", "tensorShape": {}}}, "dtype": {"type": "DT_INT32"}}}, {"name": "StatefulPartitionedCall/model/ap_conv4_block16_2_conv/Conv2D/ReadVariableOp", "op": "Const", "attr": {"dtype": {"type": "DT_FLOAT"}, "value": {"tensor": {"dtype": "DT_FLOAT", "tensorShape": {"dim": [{"size": "3"}, {"size": "3"}, {"size": "128"}, {"size": "32"}]}}}}}, {"name": "StatefulPartitionedCall/model/ap_conv4_block16_concat/concat/axis", "op": "Const", "attr": {"value": {"tensor": {"dtype": "DT_INT32", "tensorShape": {}}}, "dtype": {"type": "DT_INT32"}}}, {"name": "StatefulPartitionedCall/model/ap_conv4_block17_2_conv/Conv2D/ReadVariableOp", "op": "Const", "attr": {"value": {"tensor": {"dtype": "DT_FLOAT", "tensorShape": {"dim": [{"size": "3"}, {"size": "3"}, {"size": "128"}, {"size": "32"}]}}}, "dtype": {"type": "DT_FLOAT"}}}, {"name": "StatefulPartitionedCall/model/ap_conv4_block17_concat/concat/axis", "op": "Const", "attr": {"value": {"tensor": {"dtype": "DT_INT32", "tensorShape": {}}}, "dtype": {"type": "DT_INT32"}}}, {"name": "StatefulPartitionedCall/model/ap_conv4_block18_2_conv/Conv2D/ReadVariableOp", "op": "Const", "attr": {"value": {"tensor": {"dtype": "DT_FLOAT", "tensorShape": {"dim": [{"size": "3"}, {"size": "3"}, {"size": "128"}, {"size": "32"}]}}}, "dtype": {"type": "DT_FLOAT"}}}, {"name": "StatefulPartitionedCall/model/ap_conv4_block18_concat/concat/axis", "op": "Const", "attr": {"dtype": {"type": "DT_INT32"}, "value": {"tensor": {"dtype": "DT_INT32", "tensorShape": {}}}}}, {"name": "StatefulPartitionedCall/model/ap_conv4_block19_2_conv/Conv2D/ReadVariableOp", "op": "Const", "attr": {"value": {"tensor": {"dtype": "DT_FLOAT", "tensorShape": {"dim": [{"size": "3"}, {"size": "3"}, {"size": "128"}, {"size": "32"}]}}}, "dtype": {"type": "DT_FLOAT"}}}, {"name": "StatefulPartitionedCall/model/ap_conv4_block19_concat/concat/axis", "op": "Const", "attr": {"dtype": {"type": "DT_INT32"}, "value": {"tensor": {"dtype": "DT_INT32", "tensorShape": {}}}}}, {"name": "StatefulPartitionedCall/model/ap_conv4_block20_2_conv/Conv2D/ReadVariableOp", "op": "Const", "attr": {"value": {"tensor": {"dtype": "DT_FLOAT", "tensorShape": {"dim": [{"size": "3"}, {"size": "3"}, {"size": "128"}, {"size": "32"}]}}}, "dtype": {"type": "DT_FLOAT"}}}, {"name": "StatefulPartitionedCall/model/ap_conv4_block20_concat/concat/axis", "op": "Const", "attr": {"dtype": {"type": "DT_INT32"}, "value": {"tensor": {"dtype": "DT_INT32", "tensorShape": {}}}}}, {"name": "StatefulPartitionedCall/model/ap_conv4_block21_2_conv/Conv2D/ReadVariableOp", "op": "Const", "attr": {"value": {"tensor": {"dtype": "DT_FLOAT", "tensorShape": {"dim": [{"size": "3"}, {"size": "3"}, {"size": "128"}, {"size": "32"}]}}}, "dtype": {"type": "DT_FLOAT"}}}, {"name": "StatefulPartitionedCall/model/ap_conv4_block21_concat/concat/axis", "op": "Const", "attr": {"dtype": {"type": "DT_INT32"}, "value": {"tensor": {"dtype": "DT_INT32", "tensorShape": {}}}}}, {"name": "StatefulPartitionedCall/model/ap_conv4_block22_2_conv/Conv2D/ReadVariableOp", "op": "Const", "attr": {"value": {"tensor": {"dtype": "DT_FLOAT", "tensorShape": {"dim": [{"size": "3"}, {"size": "3"}, {"size": "128"}, {"size": "32"}]}}}, "dtype": {"type": "DT_FLOAT"}}}, {"name": "StatefulPartitionedCall/model/ap_conv4_block22_concat/concat/axis", "op": "Const", "attr": {"value": {"tensor": {"dtype": "DT_INT32", "tensorShape": {}}}, "dtype": {"type": "DT_INT32"}}}, {"name": "StatefulPartitionedCall/model/ap_conv4_block23_2_conv/Conv2D/ReadVariableOp", "op": "Const", "attr": {"value": {"tensor": {"dtype": "DT_FLOAT", "tensorShape": {"dim": [{"size": "3"}, {"size": "3"}, {"size": "128"}, {"size": "32"}]}}}, "dtype": {"type": "DT_FLOAT"}}}, {"name": "StatefulPartitionedCall/model/ap_conv4_block23_concat/concat/axis", "op": "Const", "attr": {"value": {"tensor": {"dtype": "DT_INT32", "tensorShape": {}}}, "dtype": {"type": "DT_INT32"}}}, {"name": "StatefulPartitionedCall/model/ap_conv4_block24_2_conv/Conv2D/ReadVariableOp", "op": "Const", "attr": {"value": {"tensor": {"dtype": "DT_FLOAT", "tensorShape": {"dim": [{"size": "3"}, {"size": "3"}, {"size": "128"}, {"size": "32"}]}}}, "dtype": {"type": "DT_FLOAT"}}}, {"name": "StatefulPartitionedCall/model/ap_conv4_block24_concat/concat/axis", "op": "Const", "attr": {"value": {"tensor": {"dtype": "DT_INT32", "tensorShape": {}}}, "dtype": {"type": "DT_INT32"}}}, {"name": "StatefulPartitionedCall/model/ap_conv4_block25_2_conv/Conv2D/ReadVariableOp", "op": "Const", "attr": {"dtype": {"type": "DT_FLOAT"}, "value": {"tensor": {"dtype": "DT_FLOAT", "tensorShape": {"dim": [{"size": "3"}, {"size": "3"}, {"size": "128"}, {"size": "32"}]}}}}}, {"name": "StatefulPartitionedCall/model/ap_conv4_block25_concat/concat/axis", "op": "Const", "attr": {"value": {"tensor": {"dtype": "DT_INT32", "tensorShape": {}}}, "dtype": {"type": "DT_INT32"}}}, {"name": "StatefulPartitionedCall/model/ap_conv4_block26_2_conv/Conv2D/ReadVariableOp", "op": "Const", "attr": {"value": {"tensor": {"dtype": "DT_FLOAT", "tensorShape": {"dim": [{"size": "3"}, {"size": "3"}, {"size": "128"}, {"size": "32"}]}}}, "dtype": {"type": "DT_FLOAT"}}}, {"name": "StatefulPartitionedCall/model/ap_conv4_block26_concat/concat/axis", "op": "Const", "attr": {"dtype": {"type": "DT_INT32"}, "value": {"tensor": {"dtype": "DT_INT32", "tensorShape": {}}}}}, {"name": "StatefulPartitionedCall/model/ap_conv4_block27_2_conv/Conv2D/ReadVariableOp", "op": "Const", "attr": {"dtype": {"type": "DT_FLOAT"}, "value": {"tensor": {"dtype": "DT_FLOAT", "tensorShape": {"dim": [{"size": "3"}, {"size": "3"}, {"size": "128"}, {"size": "32"}]}}}}}, {"name": "StatefulPartitionedCall/model/ap_conv4_block27_concat/concat/axis", "op": "Const", "attr": {"value": {"tensor": {"dtype": "DT_INT32", "tensorShape": {}}}, "dtype": {"type": "DT_INT32"}}}, {"name": "StatefulPartitionedCall/model/ap_conv4_block28_2_conv/Conv2D/ReadVariableOp", "op": "Const", "attr": {"dtype": {"type": "DT_FLOAT"}, "value": {"tensor": {"dtype": "DT_FLOAT", "tensorShape": {"dim": [{"size": "3"}, {"size": "3"}, {"size": "128"}, {"size": "32"}]}}}}}, {"name": "StatefulPartitionedCall/model/ap_conv4_block28_concat/concat/axis", "op": "Const", "attr": {"dtype": {"type": "DT_INT32"}, "value": {"tensor": {"dtype": "DT_INT32", "tensorShape": {}}}}}, {"name": "StatefulPartitionedCall/model/ap_conv4_block29_2_conv/Conv2D/ReadVariableOp", "op": "Const", "attr": {"value": {"tensor": {"dtype": "DT_FLOAT", "tensorShape": {"dim": [{"size": "3"}, {"size": "3"}, {"size": "128"}, {"size": "32"}]}}}, "dtype": {"type": "DT_FLOAT"}}}, {"name": "StatefulPartitionedCall/model/ap_conv4_block29_concat/concat/axis", "op": "Const", "attr": {"dtype": {"type": "DT_INT32"}, "value": {"tensor": {"dtype": "DT_INT32", "tensorShape": {}}}}}, {"name": "StatefulPartitionedCall/model/ap_conv4_block30_2_conv/Conv2D/ReadVariableOp", "op": "Const", "attr": {"dtype": {"type": "DT_FLOAT"}, "value": {"tensor": {"dtype": "DT_FLOAT", "tensorShape": {"dim": [{"size": "3"}, {"size": "3"}, {"size": "128"}, {"size": "32"}]}}}}}, {"name": "StatefulPartitionedCall/model/ap_conv4_block30_concat/concat/axis", "op": "Const", "attr": {"value": {"tensor": {"dtype": "DT_INT32", "tensorShape": {}}}, "dtype": {"type": "DT_INT32"}}}, {"name": "StatefulPartitionedCall/model/ap_conv4_block31_2_conv/Conv2D/ReadVariableOp", "op": "Const", "attr": {"dtype": {"type": "DT_FLOAT"}, "value": {"tensor": {"dtype": "DT_FLOAT", "tensorShape": {"dim": [{"size": "3"}, {"size": "3"}, {"size": "128"}, {"size": "32"}]}}}}}, {"name": "StatefulPartitionedCall/model/ap_conv4_block31_concat/concat/axis", "op": "Const", "attr": {"dtype": {"type": "DT_INT32"}, "value": {"tensor": {"dtype": "DT_INT32", "tensorShape": {}}}}}, {"name": "StatefulPartitionedCall/model/ap_conv4_block32_2_conv/Conv2D/ReadVariableOp", "op": "Const", "attr": {"dtype": {"type": "DT_FLOAT"}, "value": {"tensor": {"dtype": "DT_FLOAT", "tensorShape": {"dim": [{"size": "3"}, {"size": "3"}, {"size": "128"}, {"size": "32"}]}}}}}, {"name": "StatefulPartitionedCall/model/ap_conv4_block32_concat/concat/axis", "op": "Const", "attr": {"value": {"tensor": {"dtype": "DT_INT32", "tensorShape": {}}}, "dtype": {"type": "DT_INT32"}}}, {"name": "StatefulPartitionedCall/model/ap_pool4_conv/Conv2D/ReadVariableOp", "op": "Const", "attr": {"value": {"tensor": {"dtype": "DT_FLOAT", "tensorShape": {"dim": [{"size": "1"}, {"size": "1"}, {"size": "1280"}, {"size": "640"}]}}}, "dtype": {"type": "DT_FLOAT"}}}, {"name": "StatefulPartitionedCall/model/ap_conv5_block1_2_conv/Conv2D/ReadVariableOp", "op": "Const", "attr": {"dtype": {"type": "DT_FLOAT"}, "value": {"tensor": {"dtype": "DT_FLOAT", "tensorShape": {"dim": [{"size": "3"}, {"size": "3"}, {"size": "128"}, {"size": "32"}]}}}}}, {"name": "StatefulPartitionedCall/model/ap_conv5_block1_concat/concat/axis", "op": "Const", "attr": {"value": {"tensor": {"dtype": "DT_INT32", "tensorShape": {}}}, "dtype": {"type": "DT_INT32"}}}, {"name": "StatefulPartitionedCall/model/ap_conv5_block2_2_conv/Conv2D/ReadVariableOp", "op": "Const", "attr": {"dtype": {"type": "DT_FLOAT"}, "value": {"tensor": {"dtype": "DT_FLOAT", "tensorShape": {"dim": [{"size": "3"}, {"size": "3"}, {"size": "128"}, {"size": "32"}]}}}}}, {"name": "StatefulPartitionedCall/model/ap_conv5_block2_concat/concat/axis", "op": "Const", "attr": {"dtype": {"type": "DT_INT32"}, "value": {"tensor": {"dtype": "DT_INT32", "tensorShape": {}}}}}, {"name": "StatefulPartitionedCall/model/ap_conv5_block3_2_conv/Conv2D/ReadVariableOp", "op": "Const", "attr": {"value": {"tensor": {"dtype": "DT_FLOAT", "tensorShape": {"dim": [{"size": "3"}, {"size": "3"}, {"size": "128"}, {"size": "32"}]}}}, "dtype": {"type": "DT_FLOAT"}}}, {"name": "StatefulPartitionedCall/model/ap_conv5_block3_concat/concat/axis", "op": "Const", "attr": {"dtype": {"type": "DT_INT32"}, "value": {"tensor": {"dtype": "DT_INT32", "tensorShape": {}}}}}, {"name": "StatefulPartitionedCall/model/ap_conv5_block4_2_conv/Conv2D/ReadVariableOp", "op": "Const", "attr": {"value": {"tensor": {"dtype": "DT_FLOAT", "tensorShape": {"dim": [{"size": "3"}, {"size": "3"}, {"size": "128"}, {"size": "32"}]}}}, "dtype": {"type": "DT_FLOAT"}}}, {"name": "StatefulPartitionedCall/model/ap_conv5_block4_concat/concat/axis", "op": "Const", "attr": {"value": {"tensor": {"dtype": "DT_INT32", "tensorShape": {}}}, "dtype": {"type": "DT_INT32"}}}, {"name": "StatefulPartitionedCall/model/ap_conv5_block5_2_conv/Conv2D/ReadVariableOp", "op": "Const", "attr": {"dtype": {"type": "DT_FLOAT"}, "value": {"tensor": {"dtype": "DT_FLOAT", "tensorShape": {"dim": [{"size": "3"}, {"size": "3"}, {"size": "128"}, {"size": "32"}]}}}}}, {"name": "StatefulPartitionedCall/model/ap_conv5_block5_concat/concat/axis", "op": "Const", "attr": {"value": {"tensor": {"dtype": "DT_INT32", "tensorShape": {}}}, "dtype": {"type": "DT_INT32"}}}, {"name": "StatefulPartitionedCall/model/ap_conv5_block6_2_conv/Conv2D/ReadVariableOp", "op": "Const", "attr": {"dtype": {"type": "DT_FLOAT"}, "value": {"tensor": {"dtype": "DT_FLOAT", "tensorShape": {"dim": [{"size": "3"}, {"size": "3"}, {"size": "128"}, {"size": "32"}]}}}}}, {"name": "StatefulPartitionedCall/model/ap_conv5_block6_concat/concat/axis", "op": "Const", "attr": {"value": {"tensor": {"dtype": "DT_INT32", "tensorShape": {}}}, "dtype": {"type": "DT_INT32"}}}, {"name": "StatefulPartitionedCall/model/ap_conv5_block7_2_conv/Conv2D/ReadVariableOp", "op": "Const", "attr": {"dtype": {"type": "DT_FLOAT"}, "value": {"tensor": {"dtype": "DT_FLOAT", "tensorShape": {"dim": [{"size": "3"}, {"size": "3"}, {"size": "128"}, {"size": "32"}]}}}}}, {"name": "StatefulPartitionedCall/model/ap_conv5_block7_concat/concat/axis", "op": "Const", "attr": {"dtype": {"type": "DT_INT32"}, "value": {"tensor": {"dtype": "DT_INT32", "tensorShape": {}}}}}, {"name": "StatefulPartitionedCall/model/ap_conv5_block8_2_conv/Conv2D/ReadVariableOp", "op": "Const", "attr": {"value": {"tensor": {"dtype": "DT_FLOAT", "tensorShape": {"dim": [{"size": "3"}, {"size": "3"}, {"size": "128"}, {"size": "32"}]}}}, "dtype": {"type": "DT_FLOAT"}}}, {"name": "StatefulPartitionedCall/model/ap_conv5_block8_concat/concat/axis", "op": "Const", "attr": {"dtype": {"type": "DT_INT32"}, "value": {"tensor": {"dtype": "DT_INT32", "tensorShape": {}}}}}, {"name": "StatefulPartitionedCall/model/ap_conv5_block9_2_conv/Conv2D/ReadVariableOp", "op": "Const", "attr": {"dtype": {"type": "DT_FLOAT"}, "value": {"tensor": {"dtype": "DT_FLOAT", "tensorShape": {"dim": [{"size": "3"}, {"size": "3"}, {"size": "128"}, {"size": "32"}]}}}}}, {"name": "StatefulPartitionedCall/model/ap_conv5_block9_concat/concat/axis", "op": "Const", "attr": {"value": {"tensor": {"dtype": "DT_INT32", "tensorShape": {}}}, "dtype": {"type": "DT_INT32"}}}, {"name": "StatefulPartitionedCall/model/ap_conv5_block10_2_conv/Conv2D/ReadVariableOp", "op": "Const", "attr": {"value": {"tensor": {"dtype": "DT_FLOAT", "tensorShape": {"dim": [{"size": "3"}, {"size": "3"}, {"size": "128"}, {"size": "32"}]}}}, "dtype": {"type": "DT_FLOAT"}}}, {"name": "StatefulPartitionedCall/model/ap_conv5_block10_concat/concat/axis", "op": "Const", "attr": {"value": {"tensor": {"dtype": "DT_INT32", "tensorShape": {}}}, "dtype": {"type": "DT_INT32"}}}, {"name": "StatefulPartitionedCall/model/ap_conv5_block11_2_conv/Conv2D/ReadVariableOp", "op": "Const", "attr": {"dtype": {"type": "DT_FLOAT"}, "value": {"tensor": {"dtype": "DT_FLOAT", "tensorShape": {"dim": [{"size": "3"}, {"size": "3"}, {"size": "128"}, {"size": "32"}]}}}}}, {"name": "StatefulPartitionedCall/model/ap_conv5_block11_concat/concat/axis", "op": "Const", "attr": {"dtype": {"type": "DT_INT32"}, "value": {"tensor": {"dtype": "DT_INT32", "tensorShape": {}}}}}, {"name": "StatefulPartitionedCall/model/ap_conv5_block12_2_conv/Conv2D/ReadVariableOp", "op": "Const", "attr": {"value": {"tensor": {"dtype": "DT_FLOAT", "tensorShape": {"dim": [{"size": "3"}, {"size": "3"}, {"size": "128"}, {"size": "32"}]}}}, "dtype": {"type": "DT_FLOAT"}}}, {"name": "StatefulPartitionedCall/model/ap_conv5_block12_concat/concat/axis", "op": "Const", "attr": {"dtype": {"type": "DT_INT32"}, "value": {"tensor": {"dtype": "DT_INT32", "tensorShape": {}}}}}, {"name": "StatefulPartitionedCall/model/ap_conv5_block13_2_conv/Conv2D/ReadVariableOp", "op": "Const", "attr": {"value": {"tensor": {"dtype": "DT_FLOAT", "tensorShape": {"dim": [{"size": "3"}, {"size": "3"}, {"size": "128"}, {"size": "32"}]}}}, "dtype": {"type": "DT_FLOAT"}}}, {"name": "StatefulPartitionedCall/model/ap_conv5_block13_concat/concat/axis", "op": "Const", "attr": {"dtype": {"type": "DT_INT32"}, "value": {"tensor": {"dtype": "DT_INT32", "tensorShape": {}}}}}, {"name": "StatefulPartitionedCall/model/ap_conv5_block14_2_conv/Conv2D/ReadVariableOp", "op": "Const", "attr": {"value": {"tensor": {"dtype": "DT_FLOAT", "tensorShape": {"dim": [{"size": "3"}, {"size": "3"}, {"size": "128"}, {"size": "32"}]}}}, "dtype": {"type": "DT_FLOAT"}}}, {"name": "StatefulPartitionedCall/model/ap_conv5_block14_concat/concat/axis", "op": "Const", "attr": {"dtype": {"type": "DT_INT32"}, "value": {"tensor": {"dtype": "DT_INT32", "tensorShape": {}}}}}, {"name": "StatefulPartitionedCall/model/ap_conv5_block15_2_conv/Conv2D/ReadVariableOp", "op": "Const", "attr": {"value": {"tensor": {"dtype": "DT_FLOAT", "tensorShape": {"dim": [{"size": "3"}, {"size": "3"}, {"size": "128"}, {"size": "32"}]}}}, "dtype": {"type": "DT_FLOAT"}}}, {"name": "StatefulPartitionedCall/model/ap_conv5_block15_concat/concat/axis", "op": "Const", "attr": {"dtype": {"type": "DT_INT32"}, "value": {"tensor": {"dtype": "DT_INT32", "tensorShape": {}}}}}, {"name": "StatefulPartitionedCall/model/ap_conv5_block16_2_conv/Conv2D/ReadVariableOp", "op": "Const", "attr": {"value": {"tensor": {"dtype": "DT_FLOAT", "tensorShape": {"dim": [{"size": "3"}, {"size": "3"}, {"size": "128"}, {"size": "32"}]}}}, "dtype": {"type": "DT_FLOAT"}}}, {"name": "StatefulPartitionedCall/model/ap_conv5_block16_concat/concat/axis", "op": "Const", "attr": {"value": {"tensor": {"dtype": "DT_INT32", "tensorShape": {}}}, "dtype": {"type": "DT_INT32"}}}, {"name": "StatefulPartitionedCall/model/ap_conv5_block17_2_conv/Conv2D/ReadVariableOp", "op": "Const", "attr": {"value": {"tensor": {"dtype": "DT_FLOAT", "tensorShape": {"dim": [{"size": "3"}, {"size": "3"}, {"size": "128"}, {"size": "32"}]}}}, "dtype": {"type": "DT_FLOAT"}}}, {"name": "StatefulPartitionedCall/model/ap_conv5_block17_concat/concat/axis", "op": "Const", "attr": {"dtype": {"type": "DT_INT32"}, "value": {"tensor": {"dtype": "DT_INT32", "tensorShape": {}}}}}, {"name": "StatefulPartitionedCall/model/ap_conv5_block18_2_conv/Conv2D/ReadVariableOp", "op": "Const", "attr": {"dtype": {"type": "DT_FLOAT"}, "value": {"tensor": {"dtype": "DT_FLOAT", "tensorShape": {"dim": [{"size": "3"}, {"size": "3"}, {"size": "128"}, {"size": "32"}]}}}}}, {"name": "StatefulPartitionedCall/model/ap_conv5_block18_concat/concat/axis", "op": "Const", "attr": {"dtype": {"type": "DT_INT32"}, "value": {"tensor": {"dtype": "DT_INT32", "tensorShape": {}}}}}, {"name": "StatefulPartitionedCall/model/ap_conv5_block19_2_conv/Conv2D/ReadVariableOp", "op": "Const", "attr": {"dtype": {"type": "DT_FLOAT"}, "value": {"tensor": {"dtype": "DT_FLOAT", "tensorShape": {"dim": [{"size": "3"}, {"size": "3"}, {"size": "128"}, {"size": "32"}]}}}}}, {"name": "StatefulPartitionedCall/model/ap_conv5_block19_concat/concat/axis", "op": "Const", "attr": {"dtype": {"type": "DT_INT32"}, "value": {"tensor": {"dtype": "DT_INT32", "tensorShape": {}}}}}, {"name": "StatefulPartitionedCall/model/ap_conv5_block20_2_conv/Conv2D/ReadVariableOp", "op": "Const", "attr": {"value": {"tensor": {"dtype": "DT_FLOAT", "tensorShape": {"dim": [{"size": "3"}, {"size": "3"}, {"size": "128"}, {"size": "32"}]}}}, "dtype": {"type": "DT_FLOAT"}}}, {"name": "StatefulPartitionedCall/model/ap_conv5_block20_concat/concat/axis", "op": "Const", "attr": {"dtype": {"type": "DT_INT32"}, "value": {"tensor": {"dtype": "DT_INT32", "tensorShape": {}}}}}, {"name": "StatefulPartitionedCall/model/ap_conv5_block21_2_conv/Conv2D/ReadVariableOp", "op": "Const", "attr": {"dtype": {"type": "DT_FLOAT"}, "value": {"tensor": {"dtype": "DT_FLOAT", "tensorShape": {"dim": [{"size": "3"}, {"size": "3"}, {"size": "128"}, {"size": "32"}]}}}}}, {"name": "StatefulPartitionedCall/model/ap_conv5_block21_concat/concat/axis", "op": "Const", "attr": {"value": {"tensor": {"dtype": "DT_INT32", "tensorShape": {}}}, "dtype": {"type": "DT_INT32"}}}, {"name": "StatefulPartitionedCall/model/ap_conv5_block22_2_conv/Conv2D/ReadVariableOp", "op": "Const", "attr": {"value": {"tensor": {"dtype": "DT_FLOAT", "tensorShape": {"dim": [{"size": "3"}, {"size": "3"}, {"size": "128"}, {"size": "32"}]}}}, "dtype": {"type": "DT_FLOAT"}}}, {"name": "StatefulPartitionedCall/model/ap_conv5_block22_concat/concat/axis", "op": "Const", "attr": {"dtype": {"type": "DT_INT32"}, "value": {"tensor": {"dtype": "DT_INT32", "tensorShape": {}}}}}, {"name": "StatefulPartitionedCall/model/ap_conv5_block23_2_conv/Conv2D/ReadVariableOp", "op": "Const", "attr": {"dtype": {"type": "DT_FLOAT"}, "value": {"tensor": {"dtype": "DT_FLOAT", "tensorShape": {"dim": [{"size": "3"}, {"size": "3"}, {"size": "128"}, {"size": "32"}]}}}}}, {"name": "StatefulPartitionedCall/model/ap_conv5_block23_concat/concat/axis", "op": "Const", "attr": {"value": {"tensor": {"dtype": "DT_INT32", "tensorShape": {}}}, "dtype": {"type": "DT_INT32"}}}, {"name": "StatefulPartitionedCall/model/ap_conv5_block24_2_conv/Conv2D/ReadVariableOp", "op": "Const", "attr": {"value": {"tensor": {"dtype": "DT_FLOAT", "tensorShape": {"dim": [{"size": "3"}, {"size": "3"}, {"size": "128"}, {"size": "32"}]}}}, "dtype": {"type": "DT_FLOAT"}}}, {"name": "StatefulPartitionedCall/model/ap_conv5_block24_concat/concat/axis", "op": "Const", "attr": {"dtype": {"type": "DT_INT32"}, "value": {"tensor": {"dtype": "DT_INT32", "tensorShape": {}}}}}, {"name": "StatefulPartitionedCall/model/ap_conv5_block25_2_conv/Conv2D/ReadVariableOp", "op": "Const", "attr": {"dtype": {"type": "DT_FLOAT"}, "value": {"tensor": {"dtype": "DT_FLOAT", "tensorShape": {"dim": [{"size": "3"}, {"size": "3"}, {"size": "128"}, {"size": "32"}]}}}}}, {"name": "StatefulPartitionedCall/model/ap_conv5_block25_concat/concat/axis", "op": "Const", "attr": {"value": {"tensor": {"dtype": "DT_INT32", "tensorShape": {}}}, "dtype": {"type": "DT_INT32"}}}, {"name": "StatefulPartitionedCall/model/ap_conv5_block26_2_conv/Conv2D/ReadVariableOp", "op": "Const", "attr": {"dtype": {"type": "DT_FLOAT"}, "value": {"tensor": {"dtype": "DT_FLOAT", "tensorShape": {"dim": [{"size": "3"}, {"size": "3"}, {"size": "128"}, {"size": "32"}]}}}}}, {"name": "StatefulPartitionedCall/model/ap_conv5_block26_concat/concat/axis", "op": "Const", "attr": {"dtype": {"type": "DT_INT32"}, "value": {"tensor": {"dtype": "DT_INT32", "tensorShape": {}}}}}, {"name": "StatefulPartitionedCall/model/ap_conv5_block27_2_conv/Conv2D/ReadVariableOp", "op": "Const", "attr": {"value": {"tensor": {"dtype": "DT_FLOAT", "tensorShape": {"dim": [{"size": "3"}, {"size": "3"}, {"size": "128"}, {"size": "32"}]}}}, "dtype": {"type": "DT_FLOAT"}}}, {"name": "StatefulPartitionedCall/model/ap_conv5_block27_concat/concat/axis", "op": "Const", "attr": {"value": {"tensor": {"dtype": "DT_INT32", "tensorShape": {}}}, "dtype": {"type": "DT_INT32"}}}, {"name": "StatefulPartitionedCall/model/ap_conv5_block28_2_conv/Conv2D/ReadVariableOp", "op": "Const", "attr": {"dtype": {"type": "DT_FLOAT"}, "value": {"tensor": {"dtype": "DT_FLOAT", "tensorShape": {"dim": [{"size": "3"}, {"size": "3"}, {"size": "128"}, {"size": "32"}]}}}}}, {"name": "StatefulPartitionedCall/model/ap_conv5_block28_concat/concat/axis", "op": "Const", "attr": {"value": {"tensor": {"dtype": "DT_INT32", "tensorShape": {}}}, "dtype": {"type": "DT_INT32"}}}, {"name": "StatefulPartitionedCall/model/ap_conv5_block29_2_conv/Conv2D/ReadVariableOp", "op": "Const", "attr": {"dtype": {"type": "DT_FLOAT"}, "value": {"tensor": {"dtype": "DT_FLOAT", "tensorShape": {"dim": [{"size": "3"}, {"size": "3"}, {"size": "128"}, {"size": "32"}]}}}}}, {"name": "StatefulPartitionedCall/model/ap_conv5_block29_concat/concat/axis", "op": "Const", "attr": {"value": {"tensor": {"dtype": "DT_INT32", "tensorShape": {}}}, "dtype": {"type": "DT_INT32"}}}, {"name": "StatefulPartitionedCall/model/ap_conv5_block30_2_conv/Conv2D/ReadVariableOp", "op": "Const", "attr": {"dtype": {"type": "DT_FLOAT"}, "value": {"tensor": {"dtype": "DT_FLOAT", "tensorShape": {"dim": [{"size": "3"}, {"size": "3"}, {"size": "128"}, {"size": "32"}]}}}}}, {"name": "StatefulPartitionedCall/model/ap_conv5_block30_concat/concat/axis", "op": "Const", "attr": {"dtype": {"type": "DT_INT32"}, "value": {"tensor": {"dtype": "DT_INT32", "tensorShape": {}}}}}, {"name": "StatefulPartitionedCall/model/ap_conv5_block31_2_conv/Conv2D/ReadVariableOp", "op": "Const", "attr": {"value": {"tensor": {"dtype": "DT_FLOAT", "tensorShape": {"dim": [{"size": "3"}, {"size": "3"}, {"size": "128"}, {"size": "32"}]}}}, "dtype": {"type": "DT_FLOAT"}}}, {"name": "StatefulPartitionedCall/model/ap_conv5_block31_concat/concat/axis", "op": "Const", "attr": {"value": {"tensor": {"dtype": "DT_INT32", "tensorShape": {}}}, "dtype": {"type": "DT_INT32"}}}, {"name": "StatefulPartitionedCall/model/ap_conv5_block32_2_conv/Conv2D/ReadVariableOp", "op": "Const", "attr": {"dtype": {"type": "DT_FLOAT"}, "value": {"tensor": {"dtype": "DT_FLOAT", "tensorShape": {"dim": [{"size": "3"}, {"size": "3"}, {"size": "128"}, {"size": "32"}]}}}}}, {"name": "StatefulPartitionedCall/model/ap_conv5_block32_concat/concat/axis", "op": "Const", "attr": {"dtype": {"type": "DT_INT32"}, "value": {"tensor": {"dtype": "DT_INT32", "tensorShape": {}}}}}, {"name": "StatefulPartitionedCall/model/gap_ap/Mean/reduction_indices", "op": "Const", "attr": {"dtype": {"type": "DT_INT32"}, "value": {"tensor": {"dtype": "DT_INT32", "tensorShape": {"dim": [{"size": "2"}]}}}}}, {"name": "StatefulPartitionedCall/model/lat_zero_padding2d_2/Pad/paddings", "op": "Const", "attr": {"dtype": {"type": "DT_INT32"}, "value": {"tensor": {"dtype": "DT_INT32", "tensorShape": {"dim": [{"size": "4"}, {"size": "2"}]}}}}}, {"name": "StatefulPartitionedCall/model/lat_zero_padding2d_3/Pad/paddings", "op": "Const", "attr": {"value": {"tensor": {"dtype": "DT_INT32", "tensorShape": {"dim": [{"size": "4"}, {"size": "2"}]}}}, "dtype": {"type": "DT_INT32"}}}, {"name": "StatefulPartitionedCall/model/lat_conv2_block1_2_conv/Conv2D/ReadVariableOp", "op": "Const", "attr": {"dtype": {"type": "DT_FLOAT"}, "value": {"tensor": {"dtype": "DT_FLOAT", "tensorShape": {"dim": [{"size": "3"}, {"size": "3"}, {"size": "128"}, {"size": "32"}]}}}}}, {"name": "StatefulPartitionedCall/model/lat_conv2_block1_concat/concat/axis", "op": "Const", "attr": {"dtype": {"type": "DT_INT32"}, "value": {"tensor": {"dtype": "DT_INT32", "tensorShape": {}}}}}, {"name": "StatefulPartitionedCall/model/lat_conv2_block2_2_conv/Conv2D/ReadVariableOp", "op": "Const", "attr": {"value": {"tensor": {"dtype": "DT_FLOAT", "tensorShape": {"dim": [{"size": "3"}, {"size": "3"}, {"size": "128"}, {"size": "32"}]}}}, "dtype": {"type": "DT_FLOAT"}}}, {"name": "StatefulPartitionedCall/model/lat_conv2_block2_concat/concat/axis", "op": "Const", "attr": {"value": {"tensor": {"dtype": "DT_INT32", "tensorShape": {}}}, "dtype": {"type": "DT_INT32"}}}, {"name": "StatefulPartitionedCall/model/lat_conv2_block3_2_conv/Conv2D/ReadVariableOp", "op": "Const", "attr": {"dtype": {"type": "DT_FLOAT"}, "value": {"tensor": {"dtype": "DT_FLOAT", "tensorShape": {"dim": [{"size": "3"}, {"size": "3"}, {"size": "128"}, {"size": "32"}]}}}}}, {"name": "StatefulPartitionedCall/model/lat_conv2_block3_concat/concat/axis", "op": "Const", "attr": {"dtype": {"type": "DT_INT32"}, "value": {"tensor": {"dtype": "DT_INT32", "tensorShape": {}}}}}, {"name": "StatefulPartitionedCall/model/lat_conv2_block4_2_conv/Conv2D/ReadVariableOp", "op": "Const", "attr": {"dtype": {"type": "DT_FLOAT"}, "value": {"tensor": {"dtype": "DT_FLOAT", "tensorShape": {"dim": [{"size": "3"}, {"size": "3"}, {"size": "128"}, {"size": "32"}]}}}}}, {"name": "StatefulPartitionedCall/model/lat_conv2_block4_concat/concat/axis", "op": "Const", "attr": {"dtype": {"type": "DT_INT32"}, "value": {"tensor": {"dtype": "DT_INT32", "tensorShape": {}}}}}, {"name": "StatefulPartitionedCall/model/lat_conv2_block5_2_conv/Conv2D/ReadVariableOp", "op": "Const", "attr": {"dtype": {"type": "DT_FLOAT"}, "value": {"tensor": {"dtype": "DT_FLOAT", "tensorShape": {"dim": [{"size": "3"}, {"size": "3"}, {"size": "128"}, {"size": "32"}]}}}}}, {"name": "StatefulPartitionedCall/model/lat_conv2_block5_concat/concat/axis", "op": "Const", "attr": {"dtype": {"type": "DT_INT32"}, "value": {"tensor": {"dtype": "DT_INT32", "tensorShape": {}}}}}, {"name": "StatefulPartitionedCall/model/lat_conv2_block6_2_conv/Conv2D/ReadVariableOp", "op": "Const", "attr": {"dtype": {"type": "DT_FLOAT"}, "value": {"tensor": {"dtype": "DT_FLOAT", "tensorShape": {"dim": [{"size": "3"}, {"size": "3"}, {"size": "128"}, {"size": "32"}]}}}}}, {"name": "StatefulPartitionedCall/model/lat_conv2_block6_concat/concat/axis", "op": "Const", "attr": {"dtype": {"type": "DT_INT32"}, "value": {"tensor": {"dtype": "DT_INT32", "tensorShape": {}}}}}, {"name": "StatefulPartitionedCall/model/lat_pool2_conv/Conv2D/ReadVariableOp", "op": "Const", "attr": {"dtype": {"type": "DT_FLOAT"}, "value": {"tensor": {"dtype": "DT_FLOAT", "tensorShape": {"dim": [{"size": "1"}, {"size": "1"}, {"size": "256"}, {"size": "128"}]}}}}}, {"name": "StatefulPartitionedCall/model/lat_conv3_block1_2_conv/Conv2D/ReadVariableOp", "op": "Const", "attr": {"dtype": {"type": "DT_FLOAT"}, "value": {"tensor": {"dtype": "DT_FLOAT", "tensorShape": {"dim": [{"size": "3"}, {"size": "3"}, {"size": "128"}, {"size": "32"}]}}}}}, {"name": "StatefulPartitionedCall/model/lat_conv3_block1_concat/concat/axis", "op": "Const", "attr": {"value": {"tensor": {"dtype": "DT_INT32", "tensorShape": {}}}, "dtype": {"type": "DT_INT32"}}}, {"name": "StatefulPartitionedCall/model/lat_conv3_block2_2_conv/Conv2D/ReadVariableOp", "op": "Const", "attr": {"dtype": {"type": "DT_FLOAT"}, "value": {"tensor": {"dtype": "DT_FLOAT", "tensorShape": {"dim": [{"size": "3"}, {"size": "3"}, {"size": "128"}, {"size": "32"}]}}}}}, {"name": "StatefulPartitionedCall/model/lat_conv3_block2_concat/concat/axis", "op": "Const", "attr": {"dtype": {"type": "DT_INT32"}, "value": {"tensor": {"dtype": "DT_INT32", "tensorShape": {}}}}}, {"name": "StatefulPartitionedCall/model/lat_conv3_block3_2_conv/Conv2D/ReadVariableOp", "op": "Const", "attr": {"dtype": {"type": "DT_FLOAT"}, "value": {"tensor": {"dtype": "DT_FLOAT", "tensorShape": {"dim": [{"size": "3"}, {"size": "3"}, {"size": "128"}, {"size": "32"}]}}}}}, {"name": "StatefulPartitionedCall/model/lat_conv3_block3_concat/concat/axis", "op": "Const", "attr": {"value": {"tensor": {"dtype": "DT_INT32", "tensorShape": {}}}, "dtype": {"type": "DT_INT32"}}}, {"name": "StatefulPartitionedCall/model/lat_conv3_block4_2_conv/Conv2D/ReadVariableOp", "op": "Const", "attr": {"value": {"tensor": {"dtype": "DT_FLOAT", "tensorShape": {"dim": [{"size": "3"}, {"size": "3"}, {"size": "128"}, {"size": "32"}]}}}, "dtype": {"type": "DT_FLOAT"}}}, {"name": "StatefulPartitionedCall/model/lat_conv3_block4_concat/concat/axis", "op": "Const", "attr": {"value": {"tensor": {"dtype": "DT_INT32", "tensorShape": {}}}, "dtype": {"type": "DT_INT32"}}}, {"name": "StatefulPartitionedCall/model/lat_conv3_block5_2_conv/Conv2D/ReadVariableOp", "op": "Const", "attr": {"value": {"tensor": {"dtype": "DT_FLOAT", "tensorShape": {"dim": [{"size": "3"}, {"size": "3"}, {"size": "128"}, {"size": "32"}]}}}, "dtype": {"type": "DT_FLOAT"}}}, {"name": "StatefulPartitionedCall/model/lat_conv3_block5_concat/concat/axis", "op": "Const", "attr": {"dtype": {"type": "DT_INT32"}, "value": {"tensor": {"dtype": "DT_INT32", "tensorShape": {}}}}}, {"name": "StatefulPartitionedCall/model/lat_conv3_block6_2_conv/Conv2D/ReadVariableOp", "op": "Const", "attr": {"dtype": {"type": "DT_FLOAT"}, "value": {"tensor": {"dtype": "DT_FLOAT", "tensorShape": {"dim": [{"size": "3"}, {"size": "3"}, {"size": "128"}, {"size": "32"}]}}}}}, {"name": "StatefulPartitionedCall/model/lat_conv3_block6_concat/concat/axis", "op": "Const", "attr": {"value": {"tensor": {"dtype": "DT_INT32", "tensorShape": {}}}, "dtype": {"type": "DT_INT32"}}}, {"name": "StatefulPartitionedCall/model/lat_conv3_block7_2_conv/Conv2D/ReadVariableOp", "op": "Const", "attr": {"dtype": {"type": "DT_FLOAT"}, "value": {"tensor": {"dtype": "DT_FLOAT", "tensorShape": {"dim": [{"size": "3"}, {"size": "3"}, {"size": "128"}, {"size": "32"}]}}}}}, {"name": "StatefulPartitionedCall/model/lat_conv3_block7_concat/concat/axis", "op": "Const", "attr": {"value": {"tensor": {"dtype": "DT_INT32", "tensorShape": {}}}, "dtype": {"type": "DT_INT32"}}}, {"name": "StatefulPartitionedCall/model/lat_conv3_block8_2_conv/Conv2D/ReadVariableOp", "op": "Const", "attr": {"value": {"tensor": {"dtype": "DT_FLOAT", "tensorShape": {"dim": [{"size": "3"}, {"size": "3"}, {"size": "128"}, {"size": "32"}]}}}, "dtype": {"type": "DT_FLOAT"}}}, {"name": "StatefulPartitionedCall/model/lat_conv3_block8_concat/concat/axis", "op": "Const", "attr": {"dtype": {"type": "DT_INT32"}, "value": {"tensor": {"dtype": "DT_INT32", "tensorShape": {}}}}}, {"name": "StatefulPartitionedCall/model/lat_conv3_block9_2_conv/Conv2D/ReadVariableOp", "op": "Const", "attr": {"value": {"tensor": {"dtype": "DT_FLOAT", "tensorShape": {"dim": [{"size": "3"}, {"size": "3"}, {"size": "128"}, {"size": "32"}]}}}, "dtype": {"type": "DT_FLOAT"}}}, {"name": "StatefulPartitionedCall/model/lat_conv3_block9_concat/concat/axis", "op": "Const", "attr": {"dtype": {"type": "DT_INT32"}, "value": {"tensor": {"dtype": "DT_INT32", "tensorShape": {}}}}}, {"name": "StatefulPartitionedCall/model/lat_conv3_block10_2_conv/Conv2D/ReadVariableOp", "op": "Const", "attr": {"value": {"tensor": {"dtype": "DT_FLOAT", "tensorShape": {"dim": [{"size": "3"}, {"size": "3"}, {"size": "128"}, {"size": "32"}]}}}, "dtype": {"type": "DT_FLOAT"}}}, {"name": "StatefulPartitionedCall/model/lat_conv3_block10_concat/concat/axis", "op": "Const", "attr": {"value": {"tensor": {"dtype": "DT_INT32", "tensorShape": {}}}, "dtype": {"type": "DT_INT32"}}}, {"name": "StatefulPartitionedCall/model/lat_conv3_block11_2_conv/Conv2D/ReadVariableOp", "op": "Const", "attr": {"value": {"tensor": {"dtype": "DT_FLOAT", "tensorShape": {"dim": [{"size": "3"}, {"size": "3"}, {"size": "128"}, {"size": "32"}]}}}, "dtype": {"type": "DT_FLOAT"}}}, {"name": "StatefulPartitionedCall/model/lat_conv3_block11_concat/concat/axis", "op": "Const", "attr": {"value": {"tensor": {"dtype": "DT_INT32", "tensorShape": {}}}, "dtype": {"type": "DT_INT32"}}}, {"name": "StatefulPartitionedCall/model/lat_conv3_block12_2_conv/Conv2D/ReadVariableOp", "op": "Const", "attr": {"value": {"tensor": {"dtype": "DT_FLOAT", "tensorShape": {"dim": [{"size": "3"}, {"size": "3"}, {"size": "128"}, {"size": "32"}]}}}, "dtype": {"type": "DT_FLOAT"}}}, {"name": "StatefulPartitionedCall/model/lat_conv3_block12_concat/concat/axis", "op": "Const", "attr": {"dtype": {"type": "DT_INT32"}, "value": {"tensor": {"dtype": "DT_INT32", "tensorShape": {}}}}}, {"name": "StatefulPartitionedCall/model/lat_pool3_conv/Conv2D/ReadVariableOp", "op": "Const", "attr": {"value": {"tensor": {"dtype": "DT_FLOAT", "tensorShape": {"dim": [{"size": "1"}, {"size": "1"}, {"size": "512"}, {"size": "256"}]}}}, "dtype": {"type": "DT_FLOAT"}}}, {"name": "StatefulPartitionedCall/model/lat_conv4_block1_2_conv/Conv2D/ReadVariableOp", "op": "Const", "attr": {"value": {"tensor": {"dtype": "DT_FLOAT", "tensorShape": {"dim": [{"size": "3"}, {"size": "3"}, {"size": "128"}, {"size": "32"}]}}}, "dtype": {"type": "DT_FLOAT"}}}, {"name": "StatefulPartitionedCall/model/lat_conv4_block1_concat/concat/axis", "op": "Const", "attr": {"dtype": {"type": "DT_INT32"}, "value": {"tensor": {"dtype": "DT_INT32", "tensorShape": {}}}}}, {"name": "StatefulPartitionedCall/model/lat_conv4_block2_2_conv/Conv2D/ReadVariableOp", "op": "Const", "attr": {"value": {"tensor": {"dtype": "DT_FLOAT", "tensorShape": {"dim": [{"size": "3"}, {"size": "3"}, {"size": "128"}, {"size": "32"}]}}}, "dtype": {"type": "DT_FLOAT"}}}, {"name": "StatefulPartitionedCall/model/lat_conv4_block2_concat/concat/axis", "op": "Const", "attr": {"dtype": {"type": "DT_INT32"}, "value": {"tensor": {"dtype": "DT_INT32", "tensorShape": {}}}}}, {"name": "StatefulPartitionedCall/model/lat_conv4_block3_2_conv/Conv2D/ReadVariableOp", "op": "Const", "attr": {"value": {"tensor": {"dtype": "DT_FLOAT", "tensorShape": {"dim": [{"size": "3"}, {"size": "3"}, {"size": "128"}, {"size": "32"}]}}}, "dtype": {"type": "DT_FLOAT"}}}, {"name": "StatefulPartitionedCall/model/lat_conv4_block3_concat/concat/axis", "op": "Const", "attr": {"value": {"tensor": {"dtype": "DT_INT32", "tensorShape": {}}}, "dtype": {"type": "DT_INT32"}}}, {"name": "StatefulPartitionedCall/model/lat_conv4_block4_2_conv/Conv2D/ReadVariableOp", "op": "Const", "attr": {"value": {"tensor": {"dtype": "DT_FLOAT", "tensorShape": {"dim": [{"size": "3"}, {"size": "3"}, {"size": "128"}, {"size": "32"}]}}}, "dtype": {"type": "DT_FLOAT"}}}, {"name": "StatefulPartitionedCall/model/lat_conv4_block4_concat/concat/axis", "op": "Const", "attr": {"value": {"tensor": {"dtype": "DT_INT32", "tensorShape": {}}}, "dtype": {"type": "DT_INT32"}}}, {"name": "StatefulPartitionedCall/model/lat_conv4_block5_2_conv/Conv2D/ReadVariableOp", "op": "Const", "attr": {"value": {"tensor": {"dtype": "DT_FLOAT", "tensorShape": {"dim": [{"size": "3"}, {"size": "3"}, {"size": "128"}, {"size": "32"}]}}}, "dtype": {"type": "DT_FLOAT"}}}, {"name": "StatefulPartitionedCall/model/lat_conv4_block5_concat/concat/axis", "op": "Const", "attr": {"value": {"tensor": {"dtype": "DT_INT32", "tensorShape": {}}}, "dtype": {"type": "DT_INT32"}}}, {"name": "StatefulPartitionedCall/model/lat_conv4_block6_2_conv/Conv2D/ReadVariableOp", "op": "Const", "attr": {"dtype": {"type": "DT_FLOAT"}, "value": {"tensor": {"dtype": "DT_FLOAT", "tensorShape": {"dim": [{"size": "3"}, {"size": "3"}, {"size": "128"}, {"size": "32"}]}}}}}, {"name": "StatefulPartitionedCall/model/lat_conv4_block6_concat/concat/axis", "op": "Const", "attr": {"value": {"tensor": {"dtype": "DT_INT32", "tensorShape": {}}}, "dtype": {"type": "DT_INT32"}}}, {"name": "StatefulPartitionedCall/model/lat_conv4_block7_2_conv/Conv2D/ReadVariableOp", "op": "Const", "attr": {"value": {"tensor": {"dtype": "DT_FLOAT", "tensorShape": {"dim": [{"size": "3"}, {"size": "3"}, {"size": "128"}, {"size": "32"}]}}}, "dtype": {"type": "DT_FLOAT"}}}, {"name": "StatefulPartitionedCall/model/lat_conv4_block7_concat/concat/axis", "op": "Const", "attr": {"value": {"tensor": {"dtype": "DT_INT32", "tensorShape": {}}}, "dtype": {"type": "DT_INT32"}}}, {"name": "StatefulPartitionedCall/model/lat_conv4_block8_2_conv/Conv2D/ReadVariableOp", "op": "Const", "attr": {"dtype": {"type": "DT_FLOAT"}, "value": {"tensor": {"dtype": "DT_FLOAT", "tensorShape": {"dim": [{"size": "3"}, {"size": "3"}, {"size": "128"}, {"size": "32"}]}}}}}, {"name": "StatefulPartitionedCall/model/lat_conv4_block8_concat/concat/axis", "op": "Const", "attr": {"value": {"tensor": {"dtype": "DT_INT32", "tensorShape": {}}}, "dtype": {"type": "DT_INT32"}}}, {"name": "StatefulPartitionedCall/model/lat_conv4_block9_2_conv/Conv2D/ReadVariableOp", "op": "Const", "attr": {"value": {"tensor": {"dtype": "DT_FLOAT", "tensorShape": {"dim": [{"size": "3"}, {"size": "3"}, {"size": "128"}, {"size": "32"}]}}}, "dtype": {"type": "DT_FLOAT"}}}, {"name": "StatefulPartitionedCall/model/lat_conv4_block9_concat/concat/axis", "op": "Const", "attr": {"value": {"tensor": {"dtype": "DT_INT32", "tensorShape": {}}}, "dtype": {"type": "DT_INT32"}}}, {"name": "StatefulPartitionedCall/model/lat_conv4_block10_2_conv/Conv2D/ReadVariableOp", "op": "Const", "attr": {"dtype": {"type": "DT_FLOAT"}, "value": {"tensor": {"dtype": "DT_FLOAT", "tensorShape": {"dim": [{"size": "3"}, {"size": "3"}, {"size": "128"}, {"size": "32"}]}}}}}, {"name": "StatefulPartitionedCall/model/lat_conv4_block10_concat/concat/axis", "op": "Const", "attr": {"value": {"tensor": {"dtype": "DT_INT32", "tensorShape": {}}}, "dtype": {"type": "DT_INT32"}}}, {"name": "StatefulPartitionedCall/model/lat_conv4_block11_2_conv/Conv2D/ReadVariableOp", "op": "Const", "attr": {"dtype": {"type": "DT_FLOAT"}, "value": {"tensor": {"dtype": "DT_FLOAT", "tensorShape": {"dim": [{"size": "3"}, {"size": "3"}, {"size": "128"}, {"size": "32"}]}}}}}, {"name": "StatefulPartitionedCall/model/lat_conv4_block11_concat/concat/axis", "op": "Const", "attr": {"value": {"tensor": {"dtype": "DT_INT32", "tensorShape": {}}}, "dtype": {"type": "DT_INT32"}}}, {"name": "StatefulPartitionedCall/model/lat_conv4_block12_2_conv/Conv2D/ReadVariableOp", "op": "Const", "attr": {"value": {"tensor": {"dtype": "DT_FLOAT", "tensorShape": {"dim": [{"size": "3"}, {"size": "3"}, {"size": "128"}, {"size": "32"}]}}}, "dtype": {"type": "DT_FLOAT"}}}, {"name": "StatefulPartitionedCall/model/lat_conv4_block12_concat/concat/axis", "op": "Const", "attr": {"value": {"tensor": {"dtype": "DT_INT32", "tensorShape": {}}}, "dtype": {"type": "DT_INT32"}}}, {"name": "StatefulPartitionedCall/model/lat_conv4_block13_2_conv/Conv2D/ReadVariableOp", "op": "Const", "attr": {"dtype": {"type": "DT_FLOAT"}, "value": {"tensor": {"dtype": "DT_FLOAT", "tensorShape": {"dim": [{"size": "3"}, {"size": "3"}, {"size": "128"}, {"size": "32"}]}}}}}, {"name": "StatefulPartitionedCall/model/lat_conv4_block13_concat/concat/axis", "op": "Const", "attr": {"dtype": {"type": "DT_INT32"}, "value": {"tensor": {"dtype": "DT_INT32", "tensorShape": {}}}}}, {"name": "StatefulPartitionedCall/model/lat_conv4_block14_2_conv/Conv2D/ReadVariableOp", "op": "Const", "attr": {"dtype": {"type": "DT_FLOAT"}, "value": {"tensor": {"dtype": "DT_FLOAT", "tensorShape": {"dim": [{"size": "3"}, {"size": "3"}, {"size": "128"}, {"size": "32"}]}}}}}, {"name": "StatefulPartitionedCall/model/lat_conv4_block14_concat/concat/axis", "op": "Const", "attr": {"value": {"tensor": {"dtype": "DT_INT32", "tensorShape": {}}}, "dtype": {"type": "DT_INT32"}}}, {"name": "StatefulPartitionedCall/model/lat_conv4_block15_2_conv/Conv2D/ReadVariableOp", "op": "Const", "attr": {"value": {"tensor": {"dtype": "DT_FLOAT", "tensorShape": {"dim": [{"size": "3"}, {"size": "3"}, {"size": "128"}, {"size": "32"}]}}}, "dtype": {"type": "DT_FLOAT"}}}, {"name": "StatefulPartitionedCall/model/lat_conv4_block15_concat/concat/axis", "op": "Const", "attr": {"dtype": {"type": "DT_INT32"}, "value": {"tensor": {"dtype": "DT_INT32", "tensorShape": {}}}}}, {"name": "StatefulPartitionedCall/model/lat_conv4_block16_2_conv/Conv2D/ReadVariableOp", "op": "Const", "attr": {"value": {"tensor": {"dtype": "DT_FLOAT", "tensorShape": {"dim": [{"size": "3"}, {"size": "3"}, {"size": "128"}, {"size": "32"}]}}}, "dtype": {"type": "DT_FLOAT"}}}, {"name": "StatefulPartitionedCall/model/lat_conv4_block16_concat/concat/axis", "op": "Const", "attr": {"value": {"tensor": {"dtype": "DT_INT32", "tensorShape": {}}}, "dtype": {"type": "DT_INT32"}}}, {"name": "StatefulPartitionedCall/model/lat_conv4_block17_2_conv/Conv2D/ReadVariableOp", "op": "Const", "attr": {"dtype": {"type": "DT_FLOAT"}, "value": {"tensor": {"dtype": "DT_FLOAT", "tensorShape": {"dim": [{"size": "3"}, {"size": "3"}, {"size": "128"}, {"size": "32"}]}}}}}, {"name": "StatefulPartitionedCall/model/lat_conv4_block17_concat/concat/axis", "op": "Const", "attr": {"value": {"tensor": {"dtype": "DT_INT32", "tensorShape": {}}}, "dtype": {"type": "DT_INT32"}}}, {"name": "StatefulPartitionedCall/model/lat_conv4_block18_2_conv/Conv2D/ReadVariableOp", "op": "Const", "attr": {"value": {"tensor": {"dtype": "DT_FLOAT", "tensorShape": {"dim": [{"size": "3"}, {"size": "3"}, {"size": "128"}, {"size": "32"}]}}}, "dtype": {"type": "DT_FLOAT"}}}, {"name": "StatefulPartitionedCall/model/lat_conv4_block18_concat/concat/axis", "op": "Const", "attr": {"dtype": {"type": "DT_INT32"}, "value": {"tensor": {"dtype": "DT_INT32", "tensorShape": {}}}}}, {"name": "StatefulPartitionedCall/model/lat_conv4_block19_2_conv/Conv2D/ReadVariableOp", "op": "Const", "attr": {"value": {"tensor": {"dtype": "DT_FLOAT", "tensorShape": {"dim": [{"size": "3"}, {"size": "3"}, {"size": "128"}, {"size": "32"}]}}}, "dtype": {"type": "DT_FLOAT"}}}, {"name": "StatefulPartitionedCall/model/lat_conv4_block19_concat/concat/axis", "op": "Const", "attr": {"value": {"tensor": {"dtype": "DT_INT32", "tensorShape": {}}}, "dtype": {"type": "DT_INT32"}}}, {"name": "StatefulPartitionedCall/model/lat_conv4_block20_2_conv/Conv2D/ReadVariableOp", "op": "Const", "attr": {"value": {"tensor": {"dtype": "DT_FLOAT", "tensorShape": {"dim": [{"size": "3"}, {"size": "3"}, {"size": "128"}, {"size": "32"}]}}}, "dtype": {"type": "DT_FLOAT"}}}, {"name": "StatefulPartitionedCall/model/lat_conv4_block20_concat/concat/axis", "op": "Const", "attr": {"value": {"tensor": {"dtype": "DT_INT32", "tensorShape": {}}}, "dtype": {"type": "DT_INT32"}}}, {"name": "StatefulPartitionedCall/model/lat_conv4_block21_2_conv/Conv2D/ReadVariableOp", "op": "Const", "attr": {"value": {"tensor": {"dtype": "DT_FLOAT", "tensorShape": {"dim": [{"size": "3"}, {"size": "3"}, {"size": "128"}, {"size": "32"}]}}}, "dtype": {"type": "DT_FLOAT"}}}, {"name": "StatefulPartitionedCall/model/lat_conv4_block21_concat/concat/axis", "op": "Const", "attr": {"value": {"tensor": {"dtype": "DT_INT32", "tensorShape": {}}}, "dtype": {"type": "DT_INT32"}}}, {"name": "StatefulPartitionedCall/model/lat_conv4_block22_2_conv/Conv2D/ReadVariableOp", "op": "Const", "attr": {"dtype": {"type": "DT_FLOAT"}, "value": {"tensor": {"dtype": "DT_FLOAT", "tensorShape": {"dim": [{"size": "3"}, {"size": "3"}, {"size": "128"}, {"size": "32"}]}}}}}, {"name": "StatefulPartitionedCall/model/lat_conv4_block22_concat/concat/axis", "op": "Const", "attr": {"dtype": {"type": "DT_INT32"}, "value": {"tensor": {"dtype": "DT_INT32", "tensorShape": {}}}}}, {"name": "StatefulPartitionedCall/model/lat_conv4_block23_2_conv/Conv2D/ReadVariableOp", "op": "Const", "attr": {"value": {"tensor": {"dtype": "DT_FLOAT", "tensorShape": {"dim": [{"size": "3"}, {"size": "3"}, {"size": "128"}, {"size": "32"}]}}}, "dtype": {"type": "DT_FLOAT"}}}, {"name": "StatefulPartitionedCall/model/lat_conv4_block23_concat/concat/axis", "op": "Const", "attr": {"value": {"tensor": {"dtype": "DT_INT32", "tensorShape": {}}}, "dtype": {"type": "DT_INT32"}}}, {"name": "StatefulPartitionedCall/model/lat_conv4_block24_2_conv/Conv2D/ReadVariableOp", "op": "Const", "attr": {"value": {"tensor": {"dtype": "DT_FLOAT", "tensorShape": {"dim": [{"size": "3"}, {"size": "3"}, {"size": "128"}, {"size": "32"}]}}}, "dtype": {"type": "DT_FLOAT"}}}, {"name": "StatefulPartitionedCall/model/lat_conv4_block24_concat/concat/axis", "op": "Const", "attr": {"value": {"tensor": {"dtype": "DT_INT32", "tensorShape": {}}}, "dtype": {"type": "DT_INT32"}}}, {"name": "StatefulPartitionedCall/model/lat_conv4_block25_2_conv/Conv2D/ReadVariableOp", "op": "Const", "attr": {"value": {"tensor": {"dtype": "DT_FLOAT", "tensorShape": {"dim": [{"size": "3"}, {"size": "3"}, {"size": "128"}, {"size": "32"}]}}}, "dtype": {"type": "DT_FLOAT"}}}, {"name": "StatefulPartitionedCall/model/lat_conv4_block25_concat/concat/axis", "op": "Const", "attr": {"dtype": {"type": "DT_INT32"}, "value": {"tensor": {"dtype": "DT_INT32", "tensorShape": {}}}}}, {"name": "StatefulPartitionedCall/model/lat_conv4_block26_2_conv/Conv2D/ReadVariableOp", "op": "Const", "attr": {"value": {"tensor": {"dtype": "DT_FLOAT", "tensorShape": {"dim": [{"size": "3"}, {"size": "3"}, {"size": "128"}, {"size": "32"}]}}}, "dtype": {"type": "DT_FLOAT"}}}, {"name": "StatefulPartitionedCall/model/lat_conv4_block26_concat/concat/axis", "op": "Const", "attr": {"value": {"tensor": {"dtype": "DT_INT32", "tensorShape": {}}}, "dtype": {"type": "DT_INT32"}}}, {"name": "StatefulPartitionedCall/model/lat_conv4_block27_2_conv/Conv2D/ReadVariableOp", "op": "Const", "attr": {"dtype": {"type": "DT_FLOAT"}, "value": {"tensor": {"dtype": "DT_FLOAT", "tensorShape": {"dim": [{"size": "3"}, {"size": "3"}, {"size": "128"}, {"size": "32"}]}}}}}, {"name": "StatefulPartitionedCall/model/lat_conv4_block27_concat/concat/axis", "op": "Const", "attr": {"value": {"tensor": {"dtype": "DT_INT32", "tensorShape": {}}}, "dtype": {"type": "DT_INT32"}}}, {"name": "StatefulPartitionedCall/model/lat_conv4_block28_2_conv/Conv2D/ReadVariableOp", "op": "Const", "attr": {"value": {"tensor": {"dtype": "DT_FLOAT", "tensorShape": {"dim": [{"size": "3"}, {"size": "3"}, {"size": "128"}, {"size": "32"}]}}}, "dtype": {"type": "DT_FLOAT"}}}, {"name": "StatefulPartitionedCall/model/lat_conv4_block28_concat/concat/axis", "op": "Const", "attr": {"value": {"tensor": {"dtype": "DT_INT32", "tensorShape": {}}}, "dtype": {"type": "DT_INT32"}}}, {"name": "StatefulPartitionedCall/model/lat_conv4_block29_2_conv/Conv2D/ReadVariableOp", "op": "Const", "attr": {"value": {"tensor": {"dtype": "DT_FLOAT", "tensorShape": {"dim": [{"size": "3"}, {"size": "3"}, {"size": "128"}, {"size": "32"}]}}}, "dtype": {"type": "DT_FLOAT"}}}, {"name": "StatefulPartitionedCall/model/lat_conv4_block29_concat/concat/axis", "op": "Const", "attr": {"value": {"tensor": {"dtype": "DT_INT32", "tensorShape": {}}}, "dtype": {"type": "DT_INT32"}}}, {"name": "StatefulPartitionedCall/model/lat_conv4_block30_2_conv/Conv2D/ReadVariableOp", "op": "Const", "attr": {"value": {"tensor": {"dtype": "DT_FLOAT", "tensorShape": {"dim": [{"size": "3"}, {"size": "3"}, {"size": "128"}, {"size": "32"}]}}}, "dtype": {"type": "DT_FLOAT"}}}, {"name": "StatefulPartitionedCall/model/lat_conv4_block30_concat/concat/axis", "op": "Const", "attr": {"value": {"tensor": {"dtype": "DT_INT32", "tensorShape": {}}}, "dtype": {"type": "DT_INT32"}}}, {"name": "StatefulPartitionedCall/model/lat_conv4_block31_2_conv/Conv2D/ReadVariableOp", "op": "Const", "attr": {"value": {"tensor": {"dtype": "DT_FLOAT", "tensorShape": {"dim": [{"size": "3"}, {"size": "3"}, {"size": "128"}, {"size": "32"}]}}}, "dtype": {"type": "DT_FLOAT"}}}, {"name": "StatefulPartitionedCall/model/lat_conv4_block31_concat/concat/axis", "op": "Const", "attr": {"dtype": {"type": "DT_INT32"}, "value": {"tensor": {"dtype": "DT_INT32", "tensorShape": {}}}}}, {"name": "StatefulPartitionedCall/model/lat_conv4_block32_2_conv/Conv2D/ReadVariableOp", "op": "Const", "attr": {"value": {"tensor": {"dtype": "DT_FLOAT", "tensorShape": {"dim": [{"size": "3"}, {"size": "3"}, {"size": "128"}, {"size": "32"}]}}}, "dtype": {"type": "DT_FLOAT"}}}, {"name": "StatefulPartitionedCall/model/lat_conv4_block32_concat/concat/axis", "op": "Const", "attr": {"value": {"tensor": {"dtype": "DT_INT32", "tensorShape": {}}}, "dtype": {"type": "DT_INT32"}}}, {"name": "StatefulPartitionedCall/model/lat_pool4_conv/Conv2D/ReadVariableOp", "op": "Const", "attr": {"value": {"tensor": {"dtype": "DT_FLOAT", "tensorShape": {"dim": [{"size": "1"}, {"size": "1"}, {"size": "1280"}, {"size": "640"}]}}}, "dtype": {"type": "DT_FLOAT"}}}, {"name": "StatefulPartitionedCall/model/lat_conv5_block1_2_conv/Conv2D/ReadVariableOp", "op": "Const", "attr": {"value": {"tensor": {"dtype": "DT_FLOAT", "tensorShape": {"dim": [{"size": "3"}, {"size": "3"}, {"size": "128"}, {"size": "32"}]}}}, "dtype": {"type": "DT_FLOAT"}}}, {"name": "StatefulPartitionedCall/model/lat_conv5_block1_concat/concat/axis", "op": "Const", "attr": {"dtype": {"type": "DT_INT32"}, "value": {"tensor": {"dtype": "DT_INT32", "tensorShape": {}}}}}, {"name": "StatefulPartitionedCall/model/lat_conv5_block2_2_conv/Conv2D/ReadVariableOp", "op": "Const", "attr": {"value": {"tensor": {"dtype": "DT_FLOAT", "tensorShape": {"dim": [{"size": "3"}, {"size": "3"}, {"size": "128"}, {"size": "32"}]}}}, "dtype": {"type": "DT_FLOAT"}}}, {"name": "StatefulPartitionedCall/model/lat_conv5_block2_concat/concat/axis", "op": "Const", "attr": {"value": {"tensor": {"dtype": "DT_INT32", "tensorShape": {}}}, "dtype": {"type": "DT_INT32"}}}, {"name": "StatefulPartitionedCall/model/lat_conv5_block3_2_conv/Conv2D/ReadVariableOp", "op": "Const", "attr": {"value": {"tensor": {"dtype": "DT_FLOAT", "tensorShape": {"dim": [{"size": "3"}, {"size": "3"}, {"size": "128"}, {"size": "32"}]}}}, "dtype": {"type": "DT_FLOAT"}}}, {"name": "StatefulPartitionedCall/model/lat_conv5_block3_concat/concat/axis", "op": "Const", "attr": {"dtype": {"type": "DT_INT32"}, "value": {"tensor": {"dtype": "DT_INT32", "tensorShape": {}}}}}, {"name": "StatefulPartitionedCall/model/lat_conv5_block4_2_conv/Conv2D/ReadVariableOp", "op": "Const", "attr": {"value": {"tensor": {"dtype": "DT_FLOAT", "tensorShape": {"dim": [{"size": "3"}, {"size": "3"}, {"size": "128"}, {"size": "32"}]}}}, "dtype": {"type": "DT_FLOAT"}}}, {"name": "StatefulPartitionedCall/model/lat_conv5_block4_concat/concat/axis", "op": "Const", "attr": {"value": {"tensor": {"dtype": "DT_INT32", "tensorShape": {}}}, "dtype": {"type": "DT_INT32"}}}, {"name": "StatefulPartitionedCall/model/lat_conv5_block5_2_conv/Conv2D/ReadVariableOp", "op": "Const", "attr": {"value": {"tensor": {"dtype": "DT_FLOAT", "tensorShape": {"dim": [{"size": "3"}, {"size": "3"}, {"size": "128"}, {"size": "32"}]}}}, "dtype": {"type": "DT_FLOAT"}}}, {"name": "StatefulPartitionedCall/model/lat_conv5_block5_concat/concat/axis", "op": "Const", "attr": {"value": {"tensor": {"dtype": "DT_INT32", "tensorShape": {}}}, "dtype": {"type": "DT_INT32"}}}, {"name": "StatefulPartitionedCall/model/lat_conv5_block6_2_conv/Conv2D/ReadVariableOp", "op": "Const", "attr": {"value": {"tensor": {"dtype": "DT_FLOAT", "tensorShape": {"dim": [{"size": "3"}, {"size": "3"}, {"size": "128"}, {"size": "32"}]}}}, "dtype": {"type": "DT_FLOAT"}}}, {"name": "StatefulPartitionedCall/model/lat_conv5_block6_concat/concat/axis", "op": "Const", "attr": {"dtype": {"type": "DT_INT32"}, "value": {"tensor": {"dtype": "DT_INT32", "tensorShape": {}}}}}, {"name": "StatefulPartitionedCall/model/lat_conv5_block7_2_conv/Conv2D/ReadVariableOp", "op": "Const", "attr": {"value": {"tensor": {"dtype": "DT_FLOAT", "tensorShape": {"dim": [{"size": "3"}, {"size": "3"}, {"size": "128"}, {"size": "32"}]}}}, "dtype": {"type": "DT_FLOAT"}}}, {"name": "StatefulPartitionedCall/model/lat_conv5_block7_concat/concat/axis", "op": "Const", "attr": {"value": {"tensor": {"dtype": "DT_INT32", "tensorShape": {}}}, "dtype": {"type": "DT_INT32"}}}, {"name": "StatefulPartitionedCall/model/lat_conv5_block8_2_conv/Conv2D/ReadVariableOp", "op": "Const", "attr": {"value": {"tensor": {"dtype": "DT_FLOAT", "tensorShape": {"dim": [{"size": "3"}, {"size": "3"}, {"size": "128"}, {"size": "32"}]}}}, "dtype": {"type": "DT_FLOAT"}}}, {"name": "StatefulPartitionedCall/model/lat_conv5_block8_concat/concat/axis", "op": "Const", "attr": {"value": {"tensor": {"dtype": "DT_INT32", "tensorShape": {}}}, "dtype": {"type": "DT_INT32"}}}, {"name": "StatefulPartitionedCall/model/lat_conv5_block9_2_conv/Conv2D/ReadVariableOp", "op": "Const", "attr": {"dtype": {"type": "DT_FLOAT"}, "value": {"tensor": {"dtype": "DT_FLOAT", "tensorShape": {"dim": [{"size": "3"}, {"size": "3"}, {"size": "128"}, {"size": "32"}]}}}}}, {"name": "StatefulPartitionedCall/model/lat_conv5_block9_concat/concat/axis", "op": "Const", "attr": {"value": {"tensor": {"dtype": "DT_INT32", "tensorShape": {}}}, "dtype": {"type": "DT_INT32"}}}, {"name": "StatefulPartitionedCall/model/lat_conv5_block10_2_conv/Conv2D/ReadVariableOp", "op": "Const", "attr": {"dtype": {"type": "DT_FLOAT"}, "value": {"tensor": {"dtype": "DT_FLOAT", "tensorShape": {"dim": [{"size": "3"}, {"size": "3"}, {"size": "128"}, {"size": "32"}]}}}}}, {"name": "StatefulPartitionedCall/model/lat_conv5_block10_concat/concat/axis", "op": "Const", "attr": {"value": {"tensor": {"dtype": "DT_INT32", "tensorShape": {}}}, "dtype": {"type": "DT_INT32"}}}, {"name": "StatefulPartitionedCall/model/lat_conv5_block11_2_conv/Conv2D/ReadVariableOp", "op": "Const", "attr": {"dtype": {"type": "DT_FLOAT"}, "value": {"tensor": {"dtype": "DT_FLOAT", "tensorShape": {"dim": [{"size": "3"}, {"size": "3"}, {"size": "128"}, {"size": "32"}]}}}}}, {"name": "StatefulPartitionedCall/model/lat_conv5_block11_concat/concat/axis", "op": "Const", "attr": {"value": {"tensor": {"dtype": "DT_INT32", "tensorShape": {}}}, "dtype": {"type": "DT_INT32"}}}, {"name": "StatefulPartitionedCall/model/lat_conv5_block12_2_conv/Conv2D/ReadVariableOp", "op": "Const", "attr": {"value": {"tensor": {"dtype": "DT_FLOAT", "tensorShape": {"dim": [{"size": "3"}, {"size": "3"}, {"size": "128"}, {"size": "32"}]}}}, "dtype": {"type": "DT_FLOAT"}}}, {"name": "StatefulPartitionedCall/model/lat_conv5_block12_concat/concat/axis", "op": "Const", "attr": {"value": {"tensor": {"dtype": "DT_INT32", "tensorShape": {}}}, "dtype": {"type": "DT_INT32"}}}, {"name": "StatefulPartitionedCall/model/lat_conv5_block13_2_conv/Conv2D/ReadVariableOp", "op": "Const", "attr": {"dtype": {"type": "DT_FLOAT"}, "value": {"tensor": {"dtype": "DT_FLOAT", "tensorShape": {"dim": [{"size": "3"}, {"size": "3"}, {"size": "128"}, {"size": "32"}]}}}}}, {"name": "StatefulPartitionedCall/model/lat_conv5_block13_concat/concat/axis", "op": "Const", "attr": {"dtype": {"type": "DT_INT32"}, "value": {"tensor": {"dtype": "DT_INT32", "tensorShape": {}}}}}, {"name": "StatefulPartitionedCall/model/lat_conv5_block14_2_conv/Conv2D/ReadVariableOp", "op": "Const", "attr": {"value": {"tensor": {"dtype": "DT_FLOAT", "tensorShape": {"dim": [{"size": "3"}, {"size": "3"}, {"size": "128"}, {"size": "32"}]}}}, "dtype": {"type": "DT_FLOAT"}}}, {"name": "StatefulPartitionedCall/model/lat_conv5_block14_concat/concat/axis", "op": "Const", "attr": {"dtype": {"type": "DT_INT32"}, "value": {"tensor": {"dtype": "DT_INT32", "tensorShape": {}}}}}, {"name": "StatefulPartitionedCall/model/lat_conv5_block15_2_conv/Conv2D/ReadVariableOp", "op": "Const", "attr": {"dtype": {"type": "DT_FLOAT"}, "value": {"tensor": {"dtype": "DT_FLOAT", "tensorShape": {"dim": [{"size": "3"}, {"size": "3"}, {"size": "128"}, {"size": "32"}]}}}}}, {"name": "StatefulPartitionedCall/model/lat_conv5_block15_concat/concat/axis", "op": "Const", "attr": {"value": {"tensor": {"dtype": "DT_INT32", "tensorShape": {}}}, "dtype": {"type": "DT_INT32"}}}, {"name": "StatefulPartitionedCall/model/lat_conv5_block16_2_conv/Conv2D/ReadVariableOp", "op": "Const", "attr": {"dtype": {"type": "DT_FLOAT"}, "value": {"tensor": {"dtype": "DT_FLOAT", "tensorShape": {"dim": [{"size": "3"}, {"size": "3"}, {"size": "128"}, {"size": "32"}]}}}}}, {"name": "StatefulPartitionedCall/model/lat_conv5_block16_concat/concat/axis", "op": "Const", "attr": {"value": {"tensor": {"dtype": "DT_INT32", "tensorShape": {}}}, "dtype": {"type": "DT_INT32"}}}, {"name": "StatefulPartitionedCall/model/lat_conv5_block17_2_conv/Conv2D/ReadVariableOp", "op": "Const", "attr": {"value": {"tensor": {"dtype": "DT_FLOAT", "tensorShape": {"dim": [{"size": "3"}, {"size": "3"}, {"size": "128"}, {"size": "32"}]}}}, "dtype": {"type": "DT_FLOAT"}}}, {"name": "StatefulPartitionedCall/model/lat_conv5_block17_concat/concat/axis", "op": "Const", "attr": {"dtype": {"type": "DT_INT32"}, "value": {"tensor": {"dtype": "DT_INT32", "tensorShape": {}}}}}, {"name": "StatefulPartitionedCall/model/lat_conv5_block18_2_conv/Conv2D/ReadVariableOp", "op": "Const", "attr": {"value": {"tensor": {"dtype": "DT_FLOAT", "tensorShape": {"dim": [{"size": "3"}, {"size": "3"}, {"size": "128"}, {"size": "32"}]}}}, "dtype": {"type": "DT_FLOAT"}}}, {"name": "StatefulPartitionedCall/model/lat_conv5_block18_concat/concat/axis", "op": "Const", "attr": {"dtype": {"type": "DT_INT32"}, "value": {"tensor": {"dtype": "DT_INT32", "tensorShape": {}}}}}, {"name": "StatefulPartitionedCall/model/lat_conv5_block19_2_conv/Conv2D/ReadVariableOp", "op": "Const", "attr": {"value": {"tensor": {"dtype": "DT_FLOAT", "tensorShape": {"dim": [{"size": "3"}, {"size": "3"}, {"size": "128"}, {"size": "32"}]}}}, "dtype": {"type": "DT_FLOAT"}}}, {"name": "StatefulPartitionedCall/model/lat_conv5_block19_concat/concat/axis", "op": "Const", "attr": {"value": {"tensor": {"dtype": "DT_INT32", "tensorShape": {}}}, "dtype": {"type": "DT_INT32"}}}, {"name": "StatefulPartitionedCall/model/lat_conv5_block20_2_conv/Conv2D/ReadVariableOp", "op": "Const", "attr": {"dtype": {"type": "DT_FLOAT"}, "value": {"tensor": {"dtype": "DT_FLOAT", "tensorShape": {"dim": [{"size": "3"}, {"size": "3"}, {"size": "128"}, {"size": "32"}]}}}}}, {"name": "StatefulPartitionedCall/model/lat_conv5_block20_concat/concat/axis", "op": "Const", "attr": {"value": {"tensor": {"dtype": "DT_INT32", "tensorShape": {}}}, "dtype": {"type": "DT_INT32"}}}, {"name": "StatefulPartitionedCall/model/lat_conv5_block21_2_conv/Conv2D/ReadVariableOp", "op": "Const", "attr": {"dtype": {"type": "DT_FLOAT"}, "value": {"tensor": {"dtype": "DT_FLOAT", "tensorShape": {"dim": [{"size": "3"}, {"size": "3"}, {"size": "128"}, {"size": "32"}]}}}}}, {"name": "StatefulPartitionedCall/model/lat_conv5_block21_concat/concat/axis", "op": "Const", "attr": {"value": {"tensor": {"dtype": "DT_INT32", "tensorShape": {}}}, "dtype": {"type": "DT_INT32"}}}, {"name": "StatefulPartitionedCall/model/lat_conv5_block22_2_conv/Conv2D/ReadVariableOp", "op": "Const", "attr": {"dtype": {"type": "DT_FLOAT"}, "value": {"tensor": {"dtype": "DT_FLOAT", "tensorShape": {"dim": [{"size": "3"}, {"size": "3"}, {"size": "128"}, {"size": "32"}]}}}}}, {"name": "StatefulPartitionedCall/model/lat_conv5_block22_concat/concat/axis", "op": "Const", "attr": {"value": {"tensor": {"dtype": "DT_INT32", "tensorShape": {}}}, "dtype": {"type": "DT_INT32"}}}, {"name": "StatefulPartitionedCall/model/lat_conv5_block23_2_conv/Conv2D/ReadVariableOp", "op": "Const", "attr": {"dtype": {"type": "DT_FLOAT"}, "value": {"tensor": {"dtype": "DT_FLOAT", "tensorShape": {"dim": [{"size": "3"}, {"size": "3"}, {"size": "128"}, {"size": "32"}]}}}}}, {"name": "StatefulPartitionedCall/model/lat_conv5_block23_concat/concat/axis", "op": "Const", "attr": {"dtype": {"type": "DT_INT32"}, "value": {"tensor": {"dtype": "DT_INT32", "tensorShape": {}}}}}, {"name": "StatefulPartitionedCall/model/lat_conv5_block24_2_conv/Conv2D/ReadVariableOp", "op": "Const", "attr": {"dtype": {"type": "DT_FLOAT"}, "value": {"tensor": {"dtype": "DT_FLOAT", "tensorShape": {"dim": [{"size": "3"}, {"size": "3"}, {"size": "128"}, {"size": "32"}]}}}}}, {"name": "StatefulPartitionedCall/model/lat_conv5_block24_concat/concat/axis", "op": "Const", "attr": {"value": {"tensor": {"dtype": "DT_INT32", "tensorShape": {}}}, "dtype": {"type": "DT_INT32"}}}, {"name": "StatefulPartitionedCall/model/lat_conv5_block25_2_conv/Conv2D/ReadVariableOp", "op": "Const", "attr": {"dtype": {"type": "DT_FLOAT"}, "value": {"tensor": {"dtype": "DT_FLOAT", "tensorShape": {"dim": [{"size": "3"}, {"size": "3"}, {"size": "128"}, {"size": "32"}]}}}}}, {"name": "StatefulPartitionedCall/model/lat_conv5_block25_concat/concat/axis", "op": "Const", "attr": {"dtype": {"type": "DT_INT32"}, "value": {"tensor": {"dtype": "DT_INT32", "tensorShape": {}}}}}, {"name": "StatefulPartitionedCall/model/lat_conv5_block26_2_conv/Conv2D/ReadVariableOp", "op": "Const", "attr": {"value": {"tensor": {"dtype": "DT_FLOAT", "tensorShape": {"dim": [{"size": "3"}, {"size": "3"}, {"size": "128"}, {"size": "32"}]}}}, "dtype": {"type": "DT_FLOAT"}}}, {"name": "StatefulPartitionedCall/model/lat_conv5_block26_concat/concat/axis", "op": "Const", "attr": {"dtype": {"type": "DT_INT32"}, "value": {"tensor": {"dtype": "DT_INT32", "tensorShape": {}}}}}, {"name": "StatefulPartitionedCall/model/lat_conv5_block27_2_conv/Conv2D/ReadVariableOp", "op": "Const", "attr": {"dtype": {"type": "DT_FLOAT"}, "value": {"tensor": {"dtype": "DT_FLOAT", "tensorShape": {"dim": [{"size": "3"}, {"size": "3"}, {"size": "128"}, {"size": "32"}]}}}}}, {"name": "StatefulPartitionedCall/model/lat_conv5_block27_concat/concat/axis", "op": "Const", "attr": {"dtype": {"type": "DT_INT32"}, "value": {"tensor": {"dtype": "DT_INT32", "tensorShape": {}}}}}, {"name": "StatefulPartitionedCall/model/lat_conv5_block28_2_conv/Conv2D/ReadVariableOp", "op": "Const", "attr": {"dtype": {"type": "DT_FLOAT"}, "value": {"tensor": {"dtype": "DT_FLOAT", "tensorShape": {"dim": [{"size": "3"}, {"size": "3"}, {"size": "128"}, {"size": "32"}]}}}}}, {"name": "StatefulPartitionedCall/model/lat_conv5_block28_concat/concat/axis", "op": "Const", "attr": {"dtype": {"type": "DT_INT32"}, "value": {"tensor": {"dtype": "DT_INT32", "tensorShape": {}}}}}, {"name": "StatefulPartitionedCall/model/lat_conv5_block29_2_conv/Conv2D/ReadVariableOp", "op": "Const", "attr": {"dtype": {"type": "DT_FLOAT"}, "value": {"tensor": {"dtype": "DT_FLOAT", "tensorShape": {"dim": [{"size": "3"}, {"size": "3"}, {"size": "128"}, {"size": "32"}]}}}}}, {"name": "StatefulPartitionedCall/model/lat_conv5_block29_concat/concat/axis", "op": "Const", "attr": {"value": {"tensor": {"dtype": "DT_INT32", "tensorShape": {}}}, "dtype": {"type": "DT_INT32"}}}, {"name": "StatefulPartitionedCall/model/lat_conv5_block30_2_conv/Conv2D/ReadVariableOp", "op": "Const", "attr": {"value": {"tensor": {"dtype": "DT_FLOAT", "tensorShape": {"dim": [{"size": "3"}, {"size": "3"}, {"size": "128"}, {"size": "32"}]}}}, "dtype": {"type": "DT_FLOAT"}}}, {"name": "StatefulPartitionedCall/model/lat_conv5_block30_concat/concat/axis", "op": "Const", "attr": {"value": {"tensor": {"dtype": "DT_INT32", "tensorShape": {}}}, "dtype": {"type": "DT_INT32"}}}, {"name": "StatefulPartitionedCall/model/lat_conv5_block31_2_conv/Conv2D/ReadVariableOp", "op": "Const", "attr": {"value": {"tensor": {"dtype": "DT_FLOAT", "tensorShape": {"dim": [{"size": "3"}, {"size": "3"}, {"size": "128"}, {"size": "32"}]}}}, "dtype": {"type": "DT_FLOAT"}}}, {"name": "StatefulPartitionedCall/model/lat_conv5_block31_concat/concat/axis", "op": "Const", "attr": {"dtype": {"type": "DT_INT32"}, "value": {"tensor": {"dtype": "DT_INT32", "tensorShape": {}}}}}, {"name": "StatefulPartitionedCall/model/lat_conv5_block32_2_conv/Conv2D/ReadVariableOp", "op": "Const", "attr": {"value": {"tensor": {"dtype": "DT_FLOAT", "tensorShape": {"dim": [{"size": "3"}, {"size": "3"}, {"size": "128"}, {"size": "32"}]}}}, "dtype": {"type": "DT_FLOAT"}}}, {"name": "StatefulPartitionedCall/model/lat_conv5_block32_concat/concat/axis", "op": "Const", "attr": {"dtype": {"type": "DT_INT32"}, "value": {"tensor": {"dtype": "DT_INT32", "tensorShape": {}}}}}, {"name": "StatefulPartitionedCall/model/gap_lat/Mean/reduction_indices", "op": "Const", "attr": {"dtype": {"type": "DT_INT32"}, "value": {"tensor": {"dtype": "DT_INT32", "tensorShape": {"dim": [{"size": "2"}]}}}}}, {"name": "StatefulPartitionedCall/model/ob_zero_padding2d_4/Pad/paddings", "op": "Const", "attr": {"value": {"tensor": {"dtype": "DT_INT32", "tensorShape": {"dim": [{"size": "4"}, {"size": "2"}]}}}, "dtype": {"type": "DT_INT32"}}}, {"name": "StatefulPartitionedCall/model/ob_zero_padding2d_5/Pad/paddings", "op": "Const", "attr": {"dtype": {"type": "DT_INT32"}, "value": {"tensor": {"dtype": "DT_INT32", "tensorShape": {"dim": [{"size": "4"}, {"size": "2"}]}}}}}, {"name": "StatefulPartitionedCall/model/ob_conv2_block1_2_conv/Conv2D/ReadVariableOp", "op": "Const", "attr": {"dtype": {"type": "DT_FLOAT"}, "value": {"tensor": {"dtype": "DT_FLOAT", "tensorShape": {"dim": [{"size": "3"}, {"size": "3"}, {"size": "128"}, {"size": "32"}]}}}}}, {"name": "StatefulPartitionedCall/model/ob_conv2_block1_concat/concat/axis", "op": "Const", "attr": {"dtype": {"type": "DT_INT32"}, "value": {"tensor": {"dtype": "DT_INT32", "tensorShape": {}}}}}, {"name": "StatefulPartitionedCall/model/ob_conv2_block2_2_conv/Conv2D/ReadVariableOp", "op": "Const", "attr": {"dtype": {"type": "DT_FLOAT"}, "value": {"tensor": {"dtype": "DT_FLOAT", "tensorShape": {"dim": [{"size": "3"}, {"size": "3"}, {"size": "128"}, {"size": "32"}]}}}}}, {"name": "StatefulPartitionedCall/model/ob_conv2_block2_concat/concat/axis", "op": "Const", "attr": {"value": {"tensor": {"dtype": "DT_INT32", "tensorShape": {}}}, "dtype": {"type": "DT_INT32"}}}, {"name": "StatefulPartitionedCall/model/ob_conv2_block3_2_conv/Conv2D/ReadVariableOp", "op": "Const", "attr": {"dtype": {"type": "DT_FLOAT"}, "value": {"tensor": {"dtype": "DT_FLOAT", "tensorShape": {"dim": [{"size": "3"}, {"size": "3"}, {"size": "128"}, {"size": "32"}]}}}}}, {"name": "StatefulPartitionedCall/model/ob_conv2_block3_concat/concat/axis", "op": "Const", "attr": {"dtype": {"type": "DT_INT32"}, "value": {"tensor": {"dtype": "DT_INT32", "tensorShape": {}}}}}, {"name": "StatefulPartitionedCall/model/ob_conv2_block4_2_conv/Conv2D/ReadVariableOp", "op": "Const", "attr": {"dtype": {"type": "DT_FLOAT"}, "value": {"tensor": {"dtype": "DT_FLOAT", "tensorShape": {"dim": [{"size": "3"}, {"size": "3"}, {"size": "128"}, {"size": "32"}]}}}}}, {"name": "StatefulPartitionedCall/model/ob_conv2_block4_concat/concat/axis", "op": "Const", "attr": {"dtype": {"type": "DT_INT32"}, "value": {"tensor": {"dtype": "DT_INT32", "tensorShape": {}}}}}, {"name": "StatefulPartitionedCall/model/ob_conv2_block5_2_conv/Conv2D/ReadVariableOp", "op": "Const", "attr": {"value": {"tensor": {"dtype": "DT_FLOAT", "tensorShape": {"dim": [{"size": "3"}, {"size": "3"}, {"size": "128"}, {"size": "32"}]}}}, "dtype": {"type": "DT_FLOAT"}}}, {"name": "StatefulPartitionedCall/model/ob_conv2_block5_concat/concat/axis", "op": "Const", "attr": {"value": {"tensor": {"dtype": "DT_INT32", "tensorShape": {}}}, "dtype": {"type": "DT_INT32"}}}, {"name": "StatefulPartitionedCall/model/ob_conv2_block6_2_conv/Conv2D/ReadVariableOp", "op": "Const", "attr": {"dtype": {"type": "DT_FLOAT"}, "value": {"tensor": {"dtype": "DT_FLOAT", "tensorShape": {"dim": [{"size": "3"}, {"size": "3"}, {"size": "128"}, {"size": "32"}]}}}}}, {"name": "StatefulPartitionedCall/model/ob_conv2_block6_concat/concat/axis", "op": "Const", "attr": {"value": {"tensor": {"dtype": "DT_INT32", "tensorShape": {}}}, "dtype": {"type": "DT_INT32"}}}, {"name": "StatefulPartitionedCall/model/ob_pool2_conv/Conv2D/ReadVariableOp", "op": "Const", "attr": {"value": {"tensor": {"dtype": "DT_FLOAT", "tensorShape": {"dim": [{"size": "1"}, {"size": "1"}, {"size": "256"}, {"size": "128"}]}}}, "dtype": {"type": "DT_FLOAT"}}}, {"name": "StatefulPartitionedCall/model/ob_conv3_block1_2_conv/Conv2D/ReadVariableOp", "op": "Const", "attr": {"value": {"tensor": {"dtype": "DT_FLOAT", "tensorShape": {"dim": [{"size": "3"}, {"size": "3"}, {"size": "128"}, {"size": "32"}]}}}, "dtype": {"type": "DT_FLOAT"}}}, {"name": "StatefulPartitionedCall/model/ob_conv3_block1_concat/concat/axis", "op": "Const", "attr": {"dtype": {"type": "DT_INT32"}, "value": {"tensor": {"dtype": "DT_INT32", "tensorShape": {}}}}}, {"name": "StatefulPartitionedCall/model/ob_conv3_block2_2_conv/Conv2D/ReadVariableOp", "op": "Const", "attr": {"dtype": {"type": "DT_FLOAT"}, "value": {"tensor": {"dtype": "DT_FLOAT", "tensorShape": {"dim": [{"size": "3"}, {"size": "3"}, {"size": "128"}, {"size": "32"}]}}}}}, {"name": "StatefulPartitionedCall/model/ob_conv3_block2_concat/concat/axis", "op": "Const", "attr": {"value": {"tensor": {"dtype": "DT_INT32", "tensorShape": {}}}, "dtype": {"type": "DT_INT32"}}}, {"name": "StatefulPartitionedCall/model/ob_conv3_block3_2_conv/Conv2D/ReadVariableOp", "op": "Const", "attr": {"value": {"tensor": {"dtype": "DT_FLOAT", "tensorShape": {"dim": [{"size": "3"}, {"size": "3"}, {"size": "128"}, {"size": "32"}]}}}, "dtype": {"type": "DT_FLOAT"}}}, {"name": "StatefulPartitionedCall/model/ob_conv3_block3_concat/concat/axis", "op": "Const", "attr": {"dtype": {"type": "DT_INT32"}, "value": {"tensor": {"dtype": "DT_INT32", "tensorShape": {}}}}}, {"name": "StatefulPartitionedCall/model/ob_conv3_block4_2_conv/Conv2D/ReadVariableOp", "op": "Const", "attr": {"dtype": {"type": "DT_FLOAT"}, "value": {"tensor": {"dtype": "DT_FLOAT", "tensorShape": {"dim": [{"size": "3"}, {"size": "3"}, {"size": "128"}, {"size": "32"}]}}}}}, {"name": "StatefulPartitionedCall/model/ob_conv3_block4_concat/concat/axis", "op": "Const", "attr": {"dtype": {"type": "DT_INT32"}, "value": {"tensor": {"dtype": "DT_INT32", "tensorShape": {}}}}}, {"name": "StatefulPartitionedCall/model/ob_conv3_block5_2_conv/Conv2D/ReadVariableOp", "op": "Const", "attr": {"dtype": {"type": "DT_FLOAT"}, "value": {"tensor": {"dtype": "DT_FLOAT", "tensorShape": {"dim": [{"size": "3"}, {"size": "3"}, {"size": "128"}, {"size": "32"}]}}}}}, {"name": "StatefulPartitionedCall/model/ob_conv3_block5_concat/concat/axis", "op": "Const", "attr": {"value": {"tensor": {"dtype": "DT_INT32", "tensorShape": {}}}, "dtype": {"type": "DT_INT32"}}}, {"name": "StatefulPartitionedCall/model/ob_conv3_block6_2_conv/Conv2D/ReadVariableOp", "op": "Const", "attr": {"value": {"tensor": {"dtype": "DT_FLOAT", "tensorShape": {"dim": [{"size": "3"}, {"size": "3"}, {"size": "128"}, {"size": "32"}]}}}, "dtype": {"type": "DT_FLOAT"}}}, {"name": "StatefulPartitionedCall/model/ob_conv3_block6_concat/concat/axis", "op": "Const", "attr": {"value": {"tensor": {"dtype": "DT_INT32", "tensorShape": {}}}, "dtype": {"type": "DT_INT32"}}}, {"name": "StatefulPartitionedCall/model/ob_conv3_block7_2_conv/Conv2D/ReadVariableOp", "op": "Const", "attr": {"value": {"tensor": {"dtype": "DT_FLOAT", "tensorShape": {"dim": [{"size": "3"}, {"size": "3"}, {"size": "128"}, {"size": "32"}]}}}, "dtype": {"type": "DT_FLOAT"}}}, {"name": "StatefulPartitionedCall/model/ob_conv3_block7_concat/concat/axis", "op": "Const", "attr": {"value": {"tensor": {"dtype": "DT_INT32", "tensorShape": {}}}, "dtype": {"type": "DT_INT32"}}}, {"name": "StatefulPartitionedCall/model/ob_conv3_block8_2_conv/Conv2D/ReadVariableOp", "op": "Const", "attr": {"dtype": {"type": "DT_FLOAT"}, "value": {"tensor": {"dtype": "DT_FLOAT", "tensorShape": {"dim": [{"size": "3"}, {"size": "3"}, {"size": "128"}, {"size": "32"}]}}}}}, {"name": "StatefulPartitionedCall/model/ob_conv3_block8_concat/concat/axis", "op": "Const", "attr": {"dtype": {"type": "DT_INT32"}, "value": {"tensor": {"dtype": "DT_INT32", "tensorShape": {}}}}}, {"name": "StatefulPartitionedCall/model/ob_conv3_block9_2_conv/Conv2D/ReadVariableOp", "op": "Const", "attr": {"dtype": {"type": "DT_FLOAT"}, "value": {"tensor": {"dtype": "DT_FLOAT", "tensorShape": {"dim": [{"size": "3"}, {"size": "3"}, {"size": "128"}, {"size": "32"}]}}}}}, {"name": "StatefulPartitionedCall/model/ob_conv3_block9_concat/concat/axis", "op": "Const", "attr": {"dtype": {"type": "DT_INT32"}, "value": {"tensor": {"dtype": "DT_INT32", "tensorShape": {}}}}}, {"name": "StatefulPartitionedCall/model/ob_conv3_block10_2_conv/Conv2D/ReadVariableOp", "op": "Const", "attr": {"value": {"tensor": {"dtype": "DT_FLOAT", "tensorShape": {"dim": [{"size": "3"}, {"size": "3"}, {"size": "128"}, {"size": "32"}]}}}, "dtype": {"type": "DT_FLOAT"}}}, {"name": "StatefulPartitionedCall/model/ob_conv3_block10_concat/concat/axis", "op": "Const", "attr": {"dtype": {"type": "DT_INT32"}, "value": {"tensor": {"dtype": "DT_INT32", "tensorShape": {}}}}}, {"name": "StatefulPartitionedCall/model/ob_conv3_block11_2_conv/Conv2D/ReadVariableOp", "op": "Const", "attr": {"dtype": {"type": "DT_FLOAT"}, "value": {"tensor": {"dtype": "DT_FLOAT", "tensorShape": {"dim": [{"size": "3"}, {"size": "3"}, {"size": "128"}, {"size": "32"}]}}}}}, {"name": "StatefulPartitionedCall/model/ob_conv3_block11_concat/concat/axis", "op": "Const", "attr": {"value": {"tensor": {"dtype": "DT_INT32", "tensorShape": {}}}, "dtype": {"type": "DT_INT32"}}}, {"name": "StatefulPartitionedCall/model/ob_conv3_block12_2_conv/Conv2D/ReadVariableOp", "op": "Const", "attr": {"value": {"tensor": {"dtype": "DT_FLOAT", "tensorShape": {"dim": [{"size": "3"}, {"size": "3"}, {"size": "128"}, {"size": "32"}]}}}, "dtype": {"type": "DT_FLOAT"}}}, {"name": "StatefulPartitionedCall/model/ob_conv3_block12_concat/concat/axis", "op": "Const", "attr": {"value": {"tensor": {"dtype": "DT_INT32", "tensorShape": {}}}, "dtype": {"type": "DT_INT32"}}}, {"name": "StatefulPartitionedCall/model/ob_pool3_conv/Conv2D/ReadVariableOp", "op": "Const", "attr": {"dtype": {"type": "DT_FLOAT"}, "value": {"tensor": {"dtype": "DT_FLOAT", "tensorShape": {"dim": [{"size": "1"}, {"size": "1"}, {"size": "512"}, {"size": "256"}]}}}}}, {"name": "StatefulPartitionedCall/model/ob_conv4_block1_2_conv/Conv2D/ReadVariableOp", "op": "Const", "attr": {"value": {"tensor": {"dtype": "DT_FLOAT", "tensorShape": {"dim": [{"size": "3"}, {"size": "3"}, {"size": "128"}, {"size": "32"}]}}}, "dtype": {"type": "DT_FLOAT"}}}, {"name": "StatefulPartitionedCall/model/ob_conv4_block1_concat/concat/axis", "op": "Const", "attr": {"dtype": {"type": "DT_INT32"}, "value": {"tensor": {"dtype": "DT_INT32", "tensorShape": {}}}}}, {"name": "StatefulPartitionedCall/model/ob_conv4_block2_2_conv/Conv2D/ReadVariableOp", "op": "Const", "attr": {"dtype": {"type": "DT_FLOAT"}, "value": {"tensor": {"dtype": "DT_FLOAT", "tensorShape": {"dim": [{"size": "3"}, {"size": "3"}, {"size": "128"}, {"size": "32"}]}}}}}, {"name": "StatefulPartitionedCall/model/ob_conv4_block2_concat/concat/axis", "op": "Const", "attr": {"dtype": {"type": "DT_INT32"}, "value": {"tensor": {"dtype": "DT_INT32", "tensorShape": {}}}}}, {"name": "StatefulPartitionedCall/model/ob_conv4_block3_2_conv/Conv2D/ReadVariableOp", "op": "Const", "attr": {"dtype": {"type": "DT_FLOAT"}, "value": {"tensor": {"dtype": "DT_FLOAT", "tensorShape": {"dim": [{"size": "3"}, {"size": "3"}, {"size": "128"}, {"size": "32"}]}}}}}, {"name": "StatefulPartitionedCall/model/ob_conv4_block3_concat/concat/axis", "op": "Const", "attr": {"dtype": {"type": "DT_INT32"}, "value": {"tensor": {"dtype": "DT_INT32", "tensorShape": {}}}}}, {"name": "StatefulPartitionedCall/model/ob_conv4_block4_2_conv/Conv2D/ReadVariableOp", "op": "Const", "attr": {"dtype": {"type": "DT_FLOAT"}, "value": {"tensor": {"dtype": "DT_FLOAT", "tensorShape": {"dim": [{"size": "3"}, {"size": "3"}, {"size": "128"}, {"size": "32"}]}}}}}, {"name": "StatefulPartitionedCall/model/ob_conv4_block4_concat/concat/axis", "op": "Const", "attr": {"value": {"tensor": {"dtype": "DT_INT32", "tensorShape": {}}}, "dtype": {"type": "DT_INT32"}}}, {"name": "StatefulPartitionedCall/model/ob_conv4_block5_2_conv/Conv2D/ReadVariableOp", "op": "Const", "attr": {"value": {"tensor": {"dtype": "DT_FLOAT", "tensorShape": {"dim": [{"size": "3"}, {"size": "3"}, {"size": "128"}, {"size": "32"}]}}}, "dtype": {"type": "DT_FLOAT"}}}, {"name": "StatefulPartitionedCall/model/ob_conv4_block5_concat/concat/axis", "op": "Const", "attr": {"value": {"tensor": {"dtype": "DT_INT32", "tensorShape": {}}}, "dtype": {"type": "DT_INT32"}}}, {"name": "StatefulPartitionedCall/model/ob_conv4_block6_2_conv/Conv2D/ReadVariableOp", "op": "Const", "attr": {"dtype": {"type": "DT_FLOAT"}, "value": {"tensor": {"dtype": "DT_FLOAT", "tensorShape": {"dim": [{"size": "3"}, {"size": "3"}, {"size": "128"}, {"size": "32"}]}}}}}, {"name": "StatefulPartitionedCall/model/ob_conv4_block6_concat/concat/axis", "op": "Const", "attr": {"dtype": {"type": "DT_INT32"}, "value": {"tensor": {"dtype": "DT_INT32", "tensorShape": {}}}}}, {"name": "StatefulPartitionedCall/model/ob_conv4_block7_2_conv/Conv2D/ReadVariableOp", "op": "Const", "attr": {"dtype": {"type": "DT_FLOAT"}, "value": {"tensor": {"dtype": "DT_FLOAT", "tensorShape": {"dim": [{"size": "3"}, {"size": "3"}, {"size": "128"}, {"size": "32"}]}}}}}, {"name": "StatefulPartitionedCall/model/ob_conv4_block7_concat/concat/axis", "op": "Const", "attr": {"dtype": {"type": "DT_INT32"}, "value": {"tensor": {"dtype": "DT_INT32", "tensorShape": {}}}}}, {"name": "StatefulPartitionedCall/model/ob_conv4_block8_2_conv/Conv2D/ReadVariableOp", "op": "Const", "attr": {"value": {"tensor": {"dtype": "DT_FLOAT", "tensorShape": {"dim": [{"size": "3"}, {"size": "3"}, {"size": "128"}, {"size": "32"}]}}}, "dtype": {"type": "DT_FLOAT"}}}, {"name": "StatefulPartitionedCall/model/ob_conv4_block8_concat/concat/axis", "op": "Const", "attr": {"value": {"tensor": {"dtype": "DT_INT32", "tensorShape": {}}}, "dtype": {"type": "DT_INT32"}}}, {"name": "StatefulPartitionedCall/model/ob_conv4_block9_2_conv/Conv2D/ReadVariableOp", "op": "Const", "attr": {"dtype": {"type": "DT_FLOAT"}, "value": {"tensor": {"dtype": "DT_FLOAT", "tensorShape": {"dim": [{"size": "3"}, {"size": "3"}, {"size": "128"}, {"size": "32"}]}}}}}, {"name": "StatefulPartitionedCall/model/ob_conv4_block9_concat/concat/axis", "op": "Const", "attr": {"dtype": {"type": "DT_INT32"}, "value": {"tensor": {"dtype": "DT_INT32", "tensorShape": {}}}}}, {"name": "StatefulPartitionedCall/model/ob_conv4_block10_2_conv/Conv2D/ReadVariableOp", "op": "Const", "attr": {"dtype": {"type": "DT_FLOAT"}, "value": {"tensor": {"dtype": "DT_FLOAT", "tensorShape": {"dim": [{"size": "3"}, {"size": "3"}, {"size": "128"}, {"size": "32"}]}}}}}, {"name": "StatefulPartitionedCall/model/ob_conv4_block10_concat/concat/axis", "op": "Const", "attr": {"value": {"tensor": {"dtype": "DT_INT32", "tensorShape": {}}}, "dtype": {"type": "DT_INT32"}}}, {"name": "StatefulPartitionedCall/model/ob_conv4_block11_2_conv/Conv2D/ReadVariableOp", "op": "Const", "attr": {"dtype": {"type": "DT_FLOAT"}, "value": {"tensor": {"dtype": "DT_FLOAT", "tensorShape": {"dim": [{"size": "3"}, {"size": "3"}, {"size": "128"}, {"size": "32"}]}}}}}, {"name": "StatefulPartitionedCall/model/ob_conv4_block11_concat/concat/axis", "op": "Const", "attr": {"dtype": {"type": "DT_INT32"}, "value": {"tensor": {"dtype": "DT_INT32", "tensorShape": {}}}}}, {"name": "StatefulPartitionedCall/model/ob_conv4_block12_2_conv/Conv2D/ReadVariableOp", "op": "Const", "attr": {"value": {"tensor": {"dtype": "DT_FLOAT", "tensorShape": {"dim": [{"size": "3"}, {"size": "3"}, {"size": "128"}, {"size": "32"}]}}}, "dtype": {"type": "DT_FLOAT"}}}, {"name": "StatefulPartitionedCall/model/ob_conv4_block12_concat/concat/axis", "op": "Const", "attr": {"dtype": {"type": "DT_INT32"}, "value": {"tensor": {"dtype": "DT_INT32", "tensorShape": {}}}}}, {"name": "StatefulPartitionedCall/model/ob_conv4_block13_2_conv/Conv2D/ReadVariableOp", "op": "Const", "attr": {"dtype": {"type": "DT_FLOAT"}, "value": {"tensor": {"dtype": "DT_FLOAT", "tensorShape": {"dim": [{"size": "3"}, {"size": "3"}, {"size": "128"}, {"size": "32"}]}}}}}, {"name": "StatefulPartitionedCall/model/ob_conv4_block13_concat/concat/axis", "op": "Const", "attr": {"dtype": {"type": "DT_INT32"}, "value": {"tensor": {"dtype": "DT_INT32", "tensorShape": {}}}}}, {"name": "StatefulPartitionedCall/model/ob_conv4_block14_2_conv/Conv2D/ReadVariableOp", "op": "Const", "attr": {"value": {"tensor": {"dtype": "DT_FLOAT", "tensorShape": {"dim": [{"size": "3"}, {"size": "3"}, {"size": "128"}, {"size": "32"}]}}}, "dtype": {"type": "DT_FLOAT"}}}, {"name": "StatefulPartitionedCall/model/ob_conv4_block14_concat/concat/axis", "op": "Const", "attr": {"dtype": {"type": "DT_INT32"}, "value": {"tensor": {"dtype": "DT_INT32", "tensorShape": {}}}}}, {"name": "StatefulPartitionedCall/model/ob_conv4_block15_2_conv/Conv2D/ReadVariableOp", "op": "Const", "attr": {"dtype": {"type": "DT_FLOAT"}, "value": {"tensor": {"dtype": "DT_FLOAT", "tensorShape": {"dim": [{"size": "3"}, {"size": "3"}, {"size": "128"}, {"size": "32"}]}}}}}, {"name": "StatefulPartitionedCall/model/ob_conv4_block15_concat/concat/axis", "op": "Const", "attr": {"value": {"tensor": {"dtype": "DT_INT32", "tensorShape": {}}}, "dtype": {"type": "DT_INT32"}}}, {"name": "StatefulPartitionedCall/model/ob_conv4_block16_2_conv/Conv2D/ReadVariableOp", "op": "Const", "attr": {"dtype": {"type": "DT_FLOAT"}, "value": {"tensor": {"dtype": "DT_FLOAT", "tensorShape": {"dim": [{"size": "3"}, {"size": "3"}, {"size": "128"}, {"size": "32"}]}}}}}, {"name": "StatefulPartitionedCall/model/ob_conv4_block16_concat/concat/axis", "op": "Const", "attr": {"value": {"tensor": {"dtype": "DT_INT32", "tensorShape": {}}}, "dtype": {"type": "DT_INT32"}}}, {"name": "StatefulPartitionedCall/model/ob_conv4_block17_2_conv/Conv2D/ReadVariableOp", "op": "Const", "attr": {"dtype": {"type": "DT_FLOAT"}, "value": {"tensor": {"dtype": "DT_FLOAT", "tensorShape": {"dim": [{"size": "3"}, {"size": "3"}, {"size": "128"}, {"size": "32"}]}}}}}, {"name": "StatefulPartitionedCall/model/ob_conv4_block17_concat/concat/axis", "op": "Const", "attr": {"value": {"tensor": {"dtype": "DT_INT32", "tensorShape": {}}}, "dtype": {"type": "DT_INT32"}}}, {"name": "StatefulPartitionedCall/model/ob_conv4_block18_2_conv/Conv2D/ReadVariableOp", "op": "Const", "attr": {"value": {"tensor": {"dtype": "DT_FLOAT", "tensorShape": {"dim": [{"size": "3"}, {"size": "3"}, {"size": "128"}, {"size": "32"}]}}}, "dtype": {"type": "DT_FLOAT"}}}, {"name": "StatefulPartitionedCall/model/ob_conv4_block18_concat/concat/axis", "op": "Const", "attr": {"value": {"tensor": {"dtype": "DT_INT32", "tensorShape": {}}}, "dtype": {"type": "DT_INT32"}}}, {"name": "StatefulPartitionedCall/model/ob_conv4_block19_2_conv/Conv2D/ReadVariableOp", "op": "Const", "attr": {"value": {"tensor": {"dtype": "DT_FLOAT", "tensorShape": {"dim": [{"size": "3"}, {"size": "3"}, {"size": "128"}, {"size": "32"}]}}}, "dtype": {"type": "DT_FLOAT"}}}, {"name": "StatefulPartitionedCall/model/ob_conv4_block19_concat/concat/axis", "op": "Const", "attr": {"value": {"tensor": {"dtype": "DT_INT32", "tensorShape": {}}}, "dtype": {"type": "DT_INT32"}}}, {"name": "StatefulPartitionedCall/model/ob_conv4_block20_2_conv/Conv2D/ReadVariableOp", "op": "Const", "attr": {"value": {"tensor": {"dtype": "DT_FLOAT", "tensorShape": {"dim": [{"size": "3"}, {"size": "3"}, {"size": "128"}, {"size": "32"}]}}}, "dtype": {"type": "DT_FLOAT"}}}, {"name": "StatefulPartitionedCall/model/ob_conv4_block20_concat/concat/axis", "op": "Const", "attr": {"dtype": {"type": "DT_INT32"}, "value": {"tensor": {"dtype": "DT_INT32", "tensorShape": {}}}}}, {"name": "StatefulPartitionedCall/model/ob_conv4_block21_2_conv/Conv2D/ReadVariableOp", "op": "Const", "attr": {"value": {"tensor": {"dtype": "DT_FLOAT", "tensorShape": {"dim": [{"size": "3"}, {"size": "3"}, {"size": "128"}, {"size": "32"}]}}}, "dtype": {"type": "DT_FLOAT"}}}, {"name": "StatefulPartitionedCall/model/ob_conv4_block21_concat/concat/axis", "op": "Const", "attr": {"value": {"tensor": {"dtype": "DT_INT32", "tensorShape": {}}}, "dtype": {"type": "DT_INT32"}}}, {"name": "StatefulPartitionedCall/model/ob_conv4_block22_2_conv/Conv2D/ReadVariableOp", "op": "Const", "attr": {"dtype": {"type": "DT_FLOAT"}, "value": {"tensor": {"dtype": "DT_FLOAT", "tensorShape": {"dim": [{"size": "3"}, {"size": "3"}, {"size": "128"}, {"size": "32"}]}}}}}, {"name": "StatefulPartitionedCall/model/ob_conv4_block22_concat/concat/axis", "op": "Const", "attr": {"dtype": {"type": "DT_INT32"}, "value": {"tensor": {"dtype": "DT_INT32", "tensorShape": {}}}}}, {"name": "StatefulPartitionedCall/model/ob_conv4_block23_2_conv/Conv2D/ReadVariableOp", "op": "Const", "attr": {"value": {"tensor": {"dtype": "DT_FLOAT", "tensorShape": {"dim": [{"size": "3"}, {"size": "3"}, {"size": "128"}, {"size": "32"}]}}}, "dtype": {"type": "DT_FLOAT"}}}, {"name": "StatefulPartitionedCall/model/ob_conv4_block23_concat/concat/axis", "op": "Const", "attr": {"dtype": {"type": "DT_INT32"}, "value": {"tensor": {"dtype": "DT_INT32", "tensorShape": {}}}}}, {"name": "StatefulPartitionedCall/model/ob_conv4_block24_2_conv/Conv2D/ReadVariableOp", "op": "Const", "attr": {"dtype": {"type": "DT_FLOAT"}, "value": {"tensor": {"dtype": "DT_FLOAT", "tensorShape": {"dim": [{"size": "3"}, {"size": "3"}, {"size": "128"}, {"size": "32"}]}}}}}, {"name": "StatefulPartitionedCall/model/ob_conv4_block24_concat/concat/axis", "op": "Const", "attr": {"value": {"tensor": {"dtype": "DT_INT32", "tensorShape": {}}}, "dtype": {"type": "DT_INT32"}}}, {"name": "StatefulPartitionedCall/model/ob_conv4_block25_2_conv/Conv2D/ReadVariableOp", "op": "Const", "attr": {"value": {"tensor": {"dtype": "DT_FLOAT", "tensorShape": {"dim": [{"size": "3"}, {"size": "3"}, {"size": "128"}, {"size": "32"}]}}}, "dtype": {"type": "DT_FLOAT"}}}, {"name": "StatefulPartitionedCall/model/ob_conv4_block25_concat/concat/axis", "op": "Const", "attr": {"dtype": {"type": "DT_INT32"}, "value": {"tensor": {"dtype": "DT_INT32", "tensorShape": {}}}}}, {"name": "StatefulPartitionedCall/model/ob_conv4_block26_2_conv/Conv2D/ReadVariableOp", "op": "Const", "attr": {"value": {"tensor": {"dtype": "DT_FLOAT", "tensorShape": {"dim": [{"size": "3"}, {"size": "3"}, {"size": "128"}, {"size": "32"}]}}}, "dtype": {"type": "DT_FLOAT"}}}, {"name": "StatefulPartitionedCall/model/ob_conv4_block26_concat/concat/axis", "op": "Const", "attr": {"value": {"tensor": {"dtype": "DT_INT32", "tensorShape": {}}}, "dtype": {"type": "DT_INT32"}}}, {"name": "StatefulPartitionedCall/model/ob_conv4_block27_2_conv/Conv2D/ReadVariableOp", "op": "Const", "attr": {"value": {"tensor": {"dtype": "DT_FLOAT", "tensorShape": {"dim": [{"size": "3"}, {"size": "3"}, {"size": "128"}, {"size": "32"}]}}}, "dtype": {"type": "DT_FLOAT"}}}, {"name": "StatefulPartitionedCall/model/ob_conv4_block27_concat/concat/axis", "op": "Const", "attr": {"value": {"tensor": {"dtype": "DT_INT32", "tensorShape": {}}}, "dtype": {"type": "DT_INT32"}}}, {"name": "StatefulPartitionedCall/model/ob_conv4_block28_2_conv/Conv2D/ReadVariableOp", "op": "Const", "attr": {"value": {"tensor": {"dtype": "DT_FLOAT", "tensorShape": {"dim": [{"size": "3"}, {"size": "3"}, {"size": "128"}, {"size": "32"}]}}}, "dtype": {"type": "DT_FLOAT"}}}, {"name": "StatefulPartitionedCall/model/ob_conv4_block28_concat/concat/axis", "op": "Const", "attr": {"value": {"tensor": {"dtype": "DT_INT32", "tensorShape": {}}}, "dtype": {"type": "DT_INT32"}}}, {"name": "StatefulPartitionedCall/model/ob_conv4_block29_2_conv/Conv2D/ReadVariableOp", "op": "Const", "attr": {"dtype": {"type": "DT_FLOAT"}, "value": {"tensor": {"dtype": "DT_FLOAT", "tensorShape": {"dim": [{"size": "3"}, {"size": "3"}, {"size": "128"}, {"size": "32"}]}}}}}, {"name": "StatefulPartitionedCall/model/ob_conv4_block29_concat/concat/axis", "op": "Const", "attr": {"dtype": {"type": "DT_INT32"}, "value": {"tensor": {"dtype": "DT_INT32", "tensorShape": {}}}}}, {"name": "StatefulPartitionedCall/model/ob_conv4_block30_2_conv/Conv2D/ReadVariableOp", "op": "Const", "attr": {"value": {"tensor": {"dtype": "DT_FLOAT", "tensorShape": {"dim": [{"size": "3"}, {"size": "3"}, {"size": "128"}, {"size": "32"}]}}}, "dtype": {"type": "DT_FLOAT"}}}, {"name": "StatefulPartitionedCall/model/ob_conv4_block30_concat/concat/axis", "op": "Const", "attr": {"dtype": {"type": "DT_INT32"}, "value": {"tensor": {"dtype": "DT_INT32", "tensorShape": {}}}}}, {"name": "StatefulPartitionedCall/model/ob_conv4_block31_2_conv/Conv2D/ReadVariableOp", "op": "Const", "attr": {"dtype": {"type": "DT_FLOAT"}, "value": {"tensor": {"dtype": "DT_FLOAT", "tensorShape": {"dim": [{"size": "3"}, {"size": "3"}, {"size": "128"}, {"size": "32"}]}}}}}, {"name": "StatefulPartitionedCall/model/ob_conv4_block31_concat/concat/axis", "op": "Const", "attr": {"dtype": {"type": "DT_INT32"}, "value": {"tensor": {"dtype": "DT_INT32", "tensorShape": {}}}}}, {"name": "StatefulPartitionedCall/model/ob_conv4_block32_2_conv/Conv2D/ReadVariableOp", "op": "Const", "attr": {"value": {"tensor": {"dtype": "DT_FLOAT", "tensorShape": {"dim": [{"size": "3"}, {"size": "3"}, {"size": "128"}, {"size": "32"}]}}}, "dtype": {"type": "DT_FLOAT"}}}, {"name": "StatefulPartitionedCall/model/ob_conv4_block32_concat/concat/axis", "op": "Const", "attr": {"value": {"tensor": {"dtype": "DT_INT32", "tensorShape": {}}}, "dtype": {"type": "DT_INT32"}}}, {"name": "StatefulPartitionedCall/model/ob_pool4_conv/Conv2D/ReadVariableOp", "op": "Const", "attr": {"dtype": {"type": "DT_FLOAT"}, "value": {"tensor": {"dtype": "DT_FLOAT", "tensorShape": {"dim": [{"size": "1"}, {"size": "1"}, {"size": "1280"}, {"size": "640"}]}}}}}, {"name": "StatefulPartitionedCall/model/ob_conv5_block1_2_conv/Conv2D/ReadVariableOp", "op": "Const", "attr": {"value": {"tensor": {"dtype": "DT_FLOAT", "tensorShape": {"dim": [{"size": "3"}, {"size": "3"}, {"size": "128"}, {"size": "32"}]}}}, "dtype": {"type": "DT_FLOAT"}}}, {"name": "StatefulPartitionedCall/model/ob_conv5_block1_concat/concat/axis", "op": "Const", "attr": {"dtype": {"type": "DT_INT32"}, "value": {"tensor": {"dtype": "DT_INT32", "tensorShape": {}}}}}, {"name": "StatefulPartitionedCall/model/ob_conv5_block2_2_conv/Conv2D/ReadVariableOp", "op": "Const", "attr": {"value": {"tensor": {"dtype": "DT_FLOAT", "tensorShape": {"dim": [{"size": "3"}, {"size": "3"}, {"size": "128"}, {"size": "32"}]}}}, "dtype": {"type": "DT_FLOAT"}}}, {"name": "StatefulPartitionedCall/model/ob_conv5_block2_concat/concat/axis", "op": "Const", "attr": {"dtype": {"type": "DT_INT32"}, "value": {"tensor": {"dtype": "DT_INT32", "tensorShape": {}}}}}, {"name": "StatefulPartitionedCall/model/ob_conv5_block3_2_conv/Conv2D/ReadVariableOp", "op": "Const", "attr": {"dtype": {"type": "DT_FLOAT"}, "value": {"tensor": {"dtype": "DT_FLOAT", "tensorShape": {"dim": [{"size": "3"}, {"size": "3"}, {"size": "128"}, {"size": "32"}]}}}}}, {"name": "StatefulPartitionedCall/model/ob_conv5_block3_concat/concat/axis", "op": "Const", "attr": {"value": {"tensor": {"dtype": "DT_INT32", "tensorShape": {}}}, "dtype": {"type": "DT_INT32"}}}, {"name": "StatefulPartitionedCall/model/ob_conv5_block4_2_conv/Conv2D/ReadVariableOp", "op": "Const", "attr": {"value": {"tensor": {"dtype": "DT_FLOAT", "tensorShape": {"dim": [{"size": "3"}, {"size": "3"}, {"size": "128"}, {"size": "32"}]}}}, "dtype": {"type": "DT_FLOAT"}}}, {"name": "StatefulPartitionedCall/model/ob_conv5_block4_concat/concat/axis", "op": "Const", "attr": {"dtype": {"type": "DT_INT32"}, "value": {"tensor": {"dtype": "DT_INT32", "tensorShape": {}}}}}, {"name": "StatefulPartitionedCall/model/ob_conv5_block5_2_conv/Conv2D/ReadVariableOp", "op": "Const", "attr": {"dtype": {"type": "DT_FLOAT"}, "value": {"tensor": {"dtype": "DT_FLOAT", "tensorShape": {"dim": [{"size": "3"}, {"size": "3"}, {"size": "128"}, {"size": "32"}]}}}}}, {"name": "StatefulPartitionedCall/model/ob_conv5_block5_concat/concat/axis", "op": "Const", "attr": {"value": {"tensor": {"dtype": "DT_INT32", "tensorShape": {}}}, "dtype": {"type": "DT_INT32"}}}, {"name": "StatefulPartitionedCall/model/ob_conv5_block6_2_conv/Conv2D/ReadVariableOp", "op": "Const", "attr": {"value": {"tensor": {"dtype": "DT_FLOAT", "tensorShape": {"dim": [{"size": "3"}, {"size": "3"}, {"size": "128"}, {"size": "32"}]}}}, "dtype": {"type": "DT_FLOAT"}}}, {"name": "StatefulPartitionedCall/model/ob_conv5_block6_concat/concat/axis", "op": "Const", "attr": {"dtype": {"type": "DT_INT32"}, "value": {"tensor": {"dtype": "DT_INT32", "tensorShape": {}}}}}, {"name": "StatefulPartitionedCall/model/ob_conv5_block7_2_conv/Conv2D/ReadVariableOp", "op": "Const", "attr": {"value": {"tensor": {"dtype": "DT_FLOAT", "tensorShape": {"dim": [{"size": "3"}, {"size": "3"}, {"size": "128"}, {"size": "32"}]}}}, "dtype": {"type": "DT_FLOAT"}}}, {"name": "StatefulPartitionedCall/model/ob_conv5_block7_concat/concat/axis", "op": "Const", "attr": {"dtype": {"type": "DT_INT32"}, "value": {"tensor": {"dtype": "DT_INT32", "tensorShape": {}}}}}, {"name": "StatefulPartitionedCall/model/ob_conv5_block8_2_conv/Conv2D/ReadVariableOp", "op": "Const", "attr": {"value": {"tensor": {"dtype": "DT_FLOAT", "tensorShape": {"dim": [{"size": "3"}, {"size": "3"}, {"size": "128"}, {"size": "32"}]}}}, "dtype": {"type": "DT_FLOAT"}}}, {"name": "StatefulPartitionedCall/model/ob_conv5_block8_concat/concat/axis", "op": "Const", "attr": {"value": {"tensor": {"dtype": "DT_INT32", "tensorShape": {}}}, "dtype": {"type": "DT_INT32"}}}, {"name": "StatefulPartitionedCall/model/ob_conv5_block9_2_conv/Conv2D/ReadVariableOp", "op": "Const", "attr": {"dtype": {"type": "DT_FLOAT"}, "value": {"tensor": {"dtype": "DT_FLOAT", "tensorShape": {"dim": [{"size": "3"}, {"size": "3"}, {"size": "128"}, {"size": "32"}]}}}}}, {"name": "StatefulPartitionedCall/model/ob_conv5_block9_concat/concat/axis", "op": "Const", "attr": {"value": {"tensor": {"dtype": "DT_INT32", "tensorShape": {}}}, "dtype": {"type": "DT_INT32"}}}, {"name": "StatefulPartitionedCall/model/ob_conv5_block10_2_conv/Conv2D/ReadVariableOp", "op": "Const", "attr": {"dtype": {"type": "DT_FLOAT"}, "value": {"tensor": {"dtype": "DT_FLOAT", "tensorShape": {"dim": [{"size": "3"}, {"size": "3"}, {"size": "128"}, {"size": "32"}]}}}}}, {"name": "StatefulPartitionedCall/model/ob_conv5_block10_concat/concat/axis", "op": "Const", "attr": {"dtype": {"type": "DT_INT32"}, "value": {"tensor": {"dtype": "DT_INT32", "tensorShape": {}}}}}, {"name": "StatefulPartitionedCall/model/ob_conv5_block11_2_conv/Conv2D/ReadVariableOp", "op": "Const", "attr": {"dtype": {"type": "DT_FLOAT"}, "value": {"tensor": {"dtype": "DT_FLOAT", "tensorShape": {"dim": [{"size": "3"}, {"size": "3"}, {"size": "128"}, {"size": "32"}]}}}}}, {"name": "StatefulPartitionedCall/model/ob_conv5_block11_concat/concat/axis", "op": "Const", "attr": {"value": {"tensor": {"dtype": "DT_INT32", "tensorShape": {}}}, "dtype": {"type": "DT_INT32"}}}, {"name": "StatefulPartitionedCall/model/ob_conv5_block12_2_conv/Conv2D/ReadVariableOp", "op": "Const", "attr": {"dtype": {"type": "DT_FLOAT"}, "value": {"tensor": {"dtype": "DT_FLOAT", "tensorShape": {"dim": [{"size": "3"}, {"size": "3"}, {"size": "128"}, {"size": "32"}]}}}}}, {"name": "StatefulPartitionedCall/model/ob_conv5_block12_concat/concat/axis", "op": "Const", "attr": {"dtype": {"type": "DT_INT32"}, "value": {"tensor": {"dtype": "DT_INT32", "tensorShape": {}}}}}, {"name": "StatefulPartitionedCall/model/ob_conv5_block13_2_conv/Conv2D/ReadVariableOp", "op": "Const", "attr": {"dtype": {"type": "DT_FLOAT"}, "value": {"tensor": {"dtype": "DT_FLOAT", "tensorShape": {"dim": [{"size": "3"}, {"size": "3"}, {"size": "128"}, {"size": "32"}]}}}}}, {"name": "StatefulPartitionedCall/model/ob_conv5_block13_concat/concat/axis", "op": "Const", "attr": {"value": {"tensor": {"dtype": "DT_INT32", "tensorShape": {}}}, "dtype": {"type": "DT_INT32"}}}, {"name": "StatefulPartitionedCall/model/ob_conv5_block14_2_conv/Conv2D/ReadVariableOp", "op": "Const", "attr": {"dtype": {"type": "DT_FLOAT"}, "value": {"tensor": {"dtype": "DT_FLOAT", "tensorShape": {"dim": [{"size": "3"}, {"size": "3"}, {"size": "128"}, {"size": "32"}]}}}}}, {"name": "StatefulPartitionedCall/model/ob_conv5_block14_concat/concat/axis", "op": "Const", "attr": {"dtype": {"type": "DT_INT32"}, "value": {"tensor": {"dtype": "DT_INT32", "tensorShape": {}}}}}, {"name": "StatefulPartitionedCall/model/ob_conv5_block15_2_conv/Conv2D/ReadVariableOp", "op": "Const", "attr": {"value": {"tensor": {"dtype": "DT_FLOAT", "tensorShape": {"dim": [{"size": "3"}, {"size": "3"}, {"size": "128"}, {"size": "32"}]}}}, "dtype": {"type": "DT_FLOAT"}}}, {"name": "StatefulPartitionedCall/model/ob_conv5_block15_concat/concat/axis", "op": "Const", "attr": {"dtype": {"type": "DT_INT32"}, "value": {"tensor": {"dtype": "DT_INT32", "tensorShape": {}}}}}, {"name": "StatefulPartitionedCall/model/ob_conv5_block16_2_conv/Conv2D/ReadVariableOp", "op": "Const", "attr": {"dtype": {"type": "DT_FLOAT"}, "value": {"tensor": {"dtype": "DT_FLOAT", "tensorShape": {"dim": [{"size": "3"}, {"size": "3"}, {"size": "128"}, {"size": "32"}]}}}}}, {"name": "StatefulPartitionedCall/model/ob_conv5_block16_concat/concat/axis", "op": "Const", "attr": {"dtype": {"type": "DT_INT32"}, "value": {"tensor": {"dtype": "DT_INT32", "tensorShape": {}}}}}, {"name": "StatefulPartitionedCall/model/ob_conv5_block17_2_conv/Conv2D/ReadVariableOp", "op": "Const", "attr": {"dtype": {"type": "DT_FLOAT"}, "value": {"tensor": {"dtype": "DT_FLOAT", "tensorShape": {"dim": [{"size": "3"}, {"size": "3"}, {"size": "128"}, {"size": "32"}]}}}}}, {"name": "StatefulPartitionedCall/model/ob_conv5_block17_concat/concat/axis", "op": "Const", "attr": {"dtype": {"type": "DT_INT32"}, "value": {"tensor": {"dtype": "DT_INT32", "tensorShape": {}}}}}, {"name": "StatefulPartitionedCall/model/ob_conv5_block18_2_conv/Conv2D/ReadVariableOp", "op": "Const", "attr": {"dtype": {"type": "DT_FLOAT"}, "value": {"tensor": {"dtype": "DT_FLOAT", "tensorShape": {"dim": [{"size": "3"}, {"size": "3"}, {"size": "128"}, {"size": "32"}]}}}}}, {"name": "StatefulPartitionedCall/model/ob_conv5_block18_concat/concat/axis", "op": "Const", "attr": {"dtype": {"type": "DT_INT32"}, "value": {"tensor": {"dtype": "DT_INT32", "tensorShape": {}}}}}, {"name": "StatefulPartitionedCall/model/ob_conv5_block19_2_conv/Conv2D/ReadVariableOp", "op": "Const", "attr": {"value": {"tensor": {"dtype": "DT_FLOAT", "tensorShape": {"dim": [{"size": "3"}, {"size": "3"}, {"size": "128"}, {"size": "32"}]}}}, "dtype": {"type": "DT_FLOAT"}}}, {"name": "StatefulPartitionedCall/model/ob_conv5_block19_concat/concat/axis", "op": "Const", "attr": {"dtype": {"type": "DT_INT32"}, "value": {"tensor": {"dtype": "DT_INT32", "tensorShape": {}}}}}, {"name": "StatefulPartitionedCall/model/ob_conv5_block20_2_conv/Conv2D/ReadVariableOp", "op": "Const", "attr": {"value": {"tensor": {"dtype": "DT_FLOAT", "tensorShape": {"dim": [{"size": "3"}, {"size": "3"}, {"size": "128"}, {"size": "32"}]}}}, "dtype": {"type": "DT_FLOAT"}}}, {"name": "StatefulPartitionedCall/model/ob_conv5_block20_concat/concat/axis", "op": "Const", "attr": {"dtype": {"type": "DT_INT32"}, "value": {"tensor": {"dtype": "DT_INT32", "tensorShape": {}}}}}, {"name": "StatefulPartitionedCall/model/ob_conv5_block21_2_conv/Conv2D/ReadVariableOp", "op": "Const", "attr": {"dtype": {"type": "DT_FLOAT"}, "value": {"tensor": {"dtype": "DT_FLOAT", "tensorShape": {"dim": [{"size": "3"}, {"size": "3"}, {"size": "128"}, {"size": "32"}]}}}}}, {"name": "StatefulPartitionedCall/model/ob_conv5_block21_concat/concat/axis", "op": "Const", "attr": {"dtype": {"type": "DT_INT32"}, "value": {"tensor": {"dtype": "DT_INT32", "tensorShape": {}}}}}, {"name": "StatefulPartitionedCall/model/ob_conv5_block22_2_conv/Conv2D/ReadVariableOp", "op": "Const", "attr": {"value": {"tensor": {"dtype": "DT_FLOAT", "tensorShape": {"dim": [{"size": "3"}, {"size": "3"}, {"size": "128"}, {"size": "32"}]}}}, "dtype": {"type": "DT_FLOAT"}}}, {"name": "StatefulPartitionedCall/model/ob_conv5_block22_concat/concat/axis", "op": "Const", "attr": {"dtype": {"type": "DT_INT32"}, "value": {"tensor": {"dtype": "DT_INT32", "tensorShape": {}}}}}, {"name": "StatefulPartitionedCall/model/ob_conv5_block23_2_conv/Conv2D/ReadVariableOp", "op": "Const", "attr": {"dtype": {"type": "DT_FLOAT"}, "value": {"tensor": {"dtype": "DT_FLOAT", "tensorShape": {"dim": [{"size": "3"}, {"size": "3"}, {"size": "128"}, {"size": "32"}]}}}}}, {"name": "StatefulPartitionedCall/model/ob_conv5_block23_concat/concat/axis", "op": "Const", "attr": {"value": {"tensor": {"dtype": "DT_INT32", "tensorShape": {}}}, "dtype": {"type": "DT_INT32"}}}, {"name": "StatefulPartitionedCall/model/ob_conv5_block24_2_conv/Conv2D/ReadVariableOp", "op": "Const", "attr": {"dtype": {"type": "DT_FLOAT"}, "value": {"tensor": {"dtype": "DT_FLOAT", "tensorShape": {"dim": [{"size": "3"}, {"size": "3"}, {"size": "128"}, {"size": "32"}]}}}}}, {"name": "StatefulPartitionedCall/model/ob_conv5_block24_concat/concat/axis", "op": "Const", "attr": {"dtype": {"type": "DT_INT32"}, "value": {"tensor": {"dtype": "DT_INT32", "tensorShape": {}}}}}, {"name": "StatefulPartitionedCall/model/ob_conv5_block25_2_conv/Conv2D/ReadVariableOp", "op": "Const", "attr": {"dtype": {"type": "DT_FLOAT"}, "value": {"tensor": {"dtype": "DT_FLOAT", "tensorShape": {"dim": [{"size": "3"}, {"size": "3"}, {"size": "128"}, {"size": "32"}]}}}}}, {"name": "StatefulPartitionedCall/model/ob_conv5_block25_concat/concat/axis", "op": "Const", "attr": {"dtype": {"type": "DT_INT32"}, "value": {"tensor": {"dtype": "DT_INT32", "tensorShape": {}}}}}, {"name": "StatefulPartitionedCall/model/ob_conv5_block26_2_conv/Conv2D/ReadVariableOp", "op": "Const", "attr": {"dtype": {"type": "DT_FLOAT"}, "value": {"tensor": {"dtype": "DT_FLOAT", "tensorShape": {"dim": [{"size": "3"}, {"size": "3"}, {"size": "128"}, {"size": "32"}]}}}}}, {"name": "StatefulPartitionedCall/model/ob_conv5_block26_concat/concat/axis", "op": "Const", "attr": {"value": {"tensor": {"dtype": "DT_INT32", "tensorShape": {}}}, "dtype": {"type": "DT_INT32"}}}, {"name": "StatefulPartitionedCall/model/ob_conv5_block27_2_conv/Conv2D/ReadVariableOp", "op": "Const", "attr": {"dtype": {"type": "DT_FLOAT"}, "value": {"tensor": {"dtype": "DT_FLOAT", "tensorShape": {"dim": [{"size": "3"}, {"size": "3"}, {"size": "128"}, {"size": "32"}]}}}}}, {"name": "StatefulPartitionedCall/model/ob_conv5_block27_concat/concat/axis", "op": "Const", "attr": {"dtype": {"type": "DT_INT32"}, "value": {"tensor": {"dtype": "DT_INT32", "tensorShape": {}}}}}, {"name": "StatefulPartitionedCall/model/ob_conv5_block28_2_conv/Conv2D/ReadVariableOp", "op": "Const", "attr": {"dtype": {"type": "DT_FLOAT"}, "value": {"tensor": {"dtype": "DT_FLOAT", "tensorShape": {"dim": [{"size": "3"}, {"size": "3"}, {"size": "128"}, {"size": "32"}]}}}}}, {"name": "StatefulPartitionedCall/model/ob_conv5_block28_concat/concat/axis", "op": "Const", "attr": {"dtype": {"type": "DT_INT32"}, "value": {"tensor": {"dtype": "DT_INT32", "tensorShape": {}}}}}, {"name": "StatefulPartitionedCall/model/ob_conv5_block29_2_conv/Conv2D/ReadVariableOp", "op": "Const", "attr": {"dtype": {"type": "DT_FLOAT"}, "value": {"tensor": {"dtype": "DT_FLOAT", "tensorShape": {"dim": [{"size": "3"}, {"size": "3"}, {"size": "128"}, {"size": "32"}]}}}}}, {"name": "StatefulPartitionedCall/model/ob_conv5_block29_concat/concat/axis", "op": "Const", "attr": {"dtype": {"type": "DT_INT32"}, "value": {"tensor": {"dtype": "DT_INT32", "tensorShape": {}}}}}, {"name": "StatefulPartitionedCall/model/ob_conv5_block30_2_conv/Conv2D/ReadVariableOp", "op": "Const", "attr": {"dtype": {"type": "DT_FLOAT"}, "value": {"tensor": {"dtype": "DT_FLOAT", "tensorShape": {"dim": [{"size": "3"}, {"size": "3"}, {"size": "128"}, {"size": "32"}]}}}}}, {"name": "StatefulPartitionedCall/model/ob_conv5_block30_concat/concat/axis", "op": "Const", "attr": {"dtype": {"type": "DT_INT32"}, "value": {"tensor": {"dtype": "DT_INT32", "tensorShape": {}}}}}, {"name": "StatefulPartitionedCall/model/ob_conv5_block31_2_conv/Conv2D/ReadVariableOp", "op": "Const", "attr": {"dtype": {"type": "DT_FLOAT"}, "value": {"tensor": {"dtype": "DT_FLOAT", "tensorShape": {"dim": [{"size": "3"}, {"size": "3"}, {"size": "128"}, {"size": "32"}]}}}}}, {"name": "StatefulPartitionedCall/model/ob_conv5_block31_concat/concat/axis", "op": "Const", "attr": {"dtype": {"type": "DT_INT32"}, "value": {"tensor": {"dtype": "DT_INT32", "tensorShape": {}}}}}, {"name": "StatefulPartitionedCall/model/ob_conv5_block32_2_conv/Conv2D/ReadVariableOp", "op": "Const", "attr": {"dtype": {"type": "DT_FLOAT"}, "value": {"tensor": {"dtype": "DT_FLOAT", "tensorShape": {"dim": [{"size": "3"}, {"size": "3"}, {"size": "128"}, {"size": "32"}]}}}}}, {"name": "StatefulPartitionedCall/model/ob_conv5_block32_concat/concat/axis", "op": "Const", "attr": {"dtype": {"type": "DT_INT32"}, "value": {"tensor": {"dtype": "DT_INT32", "tensorShape": {}}}}}, {"name": "StatefulPartitionedCall/model/gap_ob/Mean/reduction_indices", "op": "Const", "attr": {"dtype": {"type": "DT_INT32"}, "value": {"tensor": {"dtype": "DT_INT32", "tensorShape": {"dim": [{"size": "2"}]}}}}}, {"name": "StatefulPartitionedCall/model/concat_views/concat/axis", "op": "Const", "attr": {"dtype": {"type": "DT_INT32"}, "value": {"tensor": {"dtype": "DT_INT32", "tensorShape": {}}}}}, {"name": "StatefulPartitionedCall/model/dense_512/MatMul/ReadVariableOp", "op": "Const", "attr": {"dtype": {"type": "DT_FLOAT"}, "value": {"tensor": {"dtype": "DT_FLOAT", "tensorShape": {"dim": [{"size": "4992"}, {"size": "512"}]}}}}}, {"name": "StatefulPartitionedCall/model/dense_128/MatMul/ReadVariableOp", "op": "Const", "attr": {"dtype": {"type": "DT_FLOAT"}, "value": {"tensor": {"dtype": "DT_FLOAT", "tensorShape": {"dim": [{"size": "512"}, {"size": "128"}]}}}}}, {"name": "StatefulPartitionedCall/model/output/MatMul/ReadVariableOp", "op": "Const", "attr": {"value": {"tensor": {"dtype": "DT_FLOAT", "tensorShape": {"dim": [{"size": "128"}, {"size": "1"}]}}}, "dtype": {"type": "DT_FLOAT"}}}, {"name": "input_ap", "op": "Placeholder", "attr": {"shape": {"shape": {"dim": [{"size": "-1"}, {"size": "224"}, {"size": "224"}, {"size": "3"}]}}, "dtype": {"type": "DT_FLOAT"}}}, {"name": "input_lat", "op": "Placeholder", "attr": {"shape": {"shape": {"dim": [{"size": "-1"}, {"size": "224"}, {"size": "224"}, {"size": "3"}]}}, "dtype": {"type": "DT_FLOAT"}}}, {"name": "input_ob", "op": "Placeholder", "attr": {"shape": {"shape": {"dim": [{"size": "-1"}, {"size": "224"}, {"size": "224"}, {"size": "3"}]}}, "dtype": {"type": "DT_FLOAT"}}}, {"name": "StatefulPartitionedCall/model/ap_conv1/conv/Conv2D_weights", "op": "Const", "attr": {"dtype": {"type": "DT_FLOAT"}, "value": {"tensor": {"dtype": "DT_FLOAT", "tensorShape": {"dim": [{"size": "7"}, {"size": "7"}, {"size": "3"}, {"size": "64"}]}}}}}, {"name": "StatefulPartitionedCall/model/ob_conv4_block4_0_bn/FusedBatchNormV3/Offset", "op": "Const", "attr": {"dtype": {"type": "DT_FLOAT"}, "value": {"tensor": {"dtype": "DT_FLOAT", "tensorShape": {"dim": [{"size": "352"}]}}}}}, {"name": "StatefulPartitionedCall/model/ap_conv1/conv/Conv2D_bn_offset", "op": "Const", "attr": {"dtype": {"type": "DT_FLOAT"}, "value": {"tensor": {"dtype": "DT_FLOAT", "tensorShape": {"dim": [{"size": "64"}]}}}}}, {"name": "StatefulPartitionedCall/model/lat_conv1/conv/Conv2D_weights", "op": "Const", "attr": {"dtype": {"type": "DT_FLOAT"}, "value": {"tensor": {"dtype": "DT_FLOAT", "tensorShape": {"dim": [{"size": "7"}, {"size": "7"}, {"size": "3"}, {"size": "64"}]}}}}}, {"name": "StatefulPartitionedCall/model/lat_conv1/conv/Conv2D_bn_offset", "op": "Const", "attr": {"dtype": {"type": "DT_FLOAT"}, "value": {"tensor": {"dtype": "DT_FLOAT", "tensorShape": {"dim": [{"size": "64"}]}}}}}, {"name": "StatefulPartitionedCall/model/ob_conv1/conv/Conv2D_weights", "op": "Const", "attr": {"dtype": {"type": "DT_FLOAT"}, "value": {"tensor": {"dtype": "DT_FLOAT", "tensorShape": {"dim": [{"size": "7"}, {"size": "7"}, {"size": "3"}, {"size": "64"}]}}}}}, {"name": "StatefulPartitionedCall/model/lat_conv4_block4_0_bn/FusedBatchNormV3/Scaled", "op": "Const", "attr": {"dtype": {"type": "DT_FLOAT"}, "value": {"tensor": {"dtype": "DT_FLOAT", "tensorShape": {"dim": [{"size": "352"}]}}}}}, {"name": "StatefulPartitionedCall/model/ob_conv1/conv/Conv2D_bn_offset", "op": "Const", "attr": {"dtype": {"type": "DT_FLOAT"}, "value": {"tensor": {"dtype": "DT_FLOAT", "tensorShape": {"dim": [{"size": "64"}]}}}}}, {"name": "StatefulPartitionedCall/model/ap_conv2_block1_1_conv/Conv2D_weights", "op": "Const", "attr": {"dtype": {"type": "DT_FLOAT"}, "value": {"tensor": {"dtype": "DT_FLOAT", "tensorShape": {"dim": [{"size": "1"}, {"size": "1"}, {"size": "64"}, {"size": "128"}]}}}}}, {"name": "StatefulPartitionedCall/model/ap_conv2_block1_1_conv/Conv2D_bn_offset", "op": "Const", "attr": {"dtype": {"type": "DT_FLOAT"}, "value": {"tensor": {"dtype": "DT_FLOAT", "tensorShape": {"dim": [{"size": "128"}]}}}}}, {"name": "StatefulPartitionedCall/model/lat_conv4_block4_0_bn/FusedBatchNormV3/Offset", "op": "Const", "attr": {"dtype": {"type": "DT_FLOAT"}, "value": {"tensor": {"dtype": "DT_FLOAT", "tensorShape": {"dim": [{"size": "352"}]}}}}}, {"name": "StatefulPartitionedCall/model/lat_conv2_block1_1_conv/Conv2D_weights", "op": "Const", "attr": {"dtype": {"type": "DT_FLOAT"}, "value": {"tensor": {"dtype": "DT_FLOAT", "tensorShape": {"dim": [{"size": "1"}, {"size": "1"}, {"size": "64"}, {"size": "128"}]}}}}}, {"name": "StatefulPartitionedCall/model/lat_conv2_block1_1_conv/Conv2D_bn_offset", "op": "Const", "attr": {"dtype": {"type": "DT_FLOAT"}, "value": {"tensor": {"dtype": "DT_FLOAT", "tensorShape": {"dim": [{"size": "128"}]}}}}}, {"name": "StatefulPartitionedCall/model/ob_conv2_block1_1_conv/Conv2D_weights", "op": "Const", "attr": {"dtype": {"type": "DT_FLOAT"}, "value": {"tensor": {"dtype": "DT_FLOAT", "tensorShape": {"dim": [{"size": "1"}, {"size": "1"}, {"size": "64"}, {"size": "128"}]}}}}}, {"name": "StatefulPartitionedCall/model/ob_conv2_block1_1_conv/Conv2D_bn_offset", "op": "Const", "attr": {"dtype": {"type": "DT_FLOAT"}, "value": {"tensor": {"dtype": "DT_FLOAT", "tensorShape": {"dim": [{"size": "128"}]}}}}}, {"name": "StatefulPartitionedCall/model/ap_conv4_block4_0_bn/FusedBatchNormV3/Scaled", "op": "Const", "attr": {"dtype": {"type": "DT_FLOAT"}, "value": {"tensor": {"dtype": "DT_FLOAT", "tensorShape": {"dim": [{"size": "352"}]}}}}}, {"name": "StatefulPartitionedCall/model/ap_conv2_block2_1_conv/Conv2D_weights", "op": "Const", "attr": {"dtype": {"type": "DT_FLOAT"}, "value": {"tensor": {"dtype": "DT_FLOAT", "tensorShape": {"dim": [{"size": "1"}, {"size": "1"}, {"size": "96"}, {"size": "128"}]}}}}}, {"name": "StatefulPartitionedCall/model/ap_conv2_block2_1_conv/Conv2D_bn_offset", "op": "Const", "attr": {"dtype": {"type": "DT_FLOAT"}, "value": {"tensor": {"dtype": "DT_FLOAT", "tensorShape": {"dim": [{"size": "128"}]}}}}}, {"name": "StatefulPartitionedCall/model/lat_conv2_block2_1_conv/Conv2D_weights", "op": "Const", "attr": {"dtype": {"type": "DT_FLOAT"}, "value": {"tensor": {"dtype": "DT_FLOAT", "tensorShape": {"dim": [{"size": "1"}, {"size": "1"}, {"size": "96"}, {"size": "128"}]}}}}}, {"name": "StatefulPartitionedCall/model/ap_conv4_block4_0_bn/FusedBatchNormV3/Offset", "op": "Const", "attr": {"dtype": {"type": "DT_FLOAT"}, "value": {"tensor": {"dtype": "DT_FLOAT", "tensorShape": {"dim": [{"size": "352"}]}}}}}, {"name": "StatefulPartitionedCall/model/lat_conv2_block2_1_conv/Conv2D_bn_offset", "op": "Const", "attr": {"dtype": {"type": "DT_FLOAT"}, "value": {"tensor": {"dtype": "DT_FLOAT", "tensorShape": {"dim": [{"size": "128"}]}}}}}, {"name": "StatefulPartitionedCall/model/ob_conv2_block2_1_conv/Conv2D_weights", "op": "Const", "attr": {"dtype": {"type": "DT_FLOAT"}, "value": {"tensor": {"dtype": "DT_FLOAT", "tensorShape": {"dim": [{"size": "1"}, {"size": "1"}, {"size": "96"}, {"size": "128"}]}}}}}, {"name": "StatefulPartitionedCall/model/ob_conv2_block2_1_conv/Conv2D_bn_offset", "op": "Const", "attr": {"dtype": {"type": "DT_FLOAT"}, "value": {"tensor": {"dtype": "DT_FLOAT", "tensorShape": {"dim": [{"size": "128"}]}}}}}, {"name": "StatefulPartitionedCall/model/ap_conv2_block3_1_conv/Conv2D_weights", "op": "Const", "attr": {"dtype": {"type": "DT_FLOAT"}, "value": {"tensor": {"dtype": "DT_FLOAT", "tensorShape": {"dim": [{"size": "1"}, {"size": "1"}, {"size": "128"}, {"size": "128"}]}}}}}, {"name": "StatefulPartitionedCall/model/ob_conv4_block3_0_bn/FusedBatchNormV3/Scaled", "op": "Const", "attr": {"dtype": {"type": "DT_FLOAT"}, "value": {"tensor": {"dtype": "DT_FLOAT", "tensorShape": {"dim": [{"size": "320"}]}}}}}, {"name": "StatefulPartitionedCall/model/ap_conv2_block3_1_conv/Conv2D_bn_offset", "op": "Const", "attr": {"dtype": {"type": "DT_FLOAT"}, "value": {"tensor": {"dtype": "DT_FLOAT", "tensorShape": {"dim": [{"size": "128"}]}}}}}, {"name": "StatefulPartitionedCall/model/lat_conv2_block3_1_conv/Conv2D_weights", "op": "Const", "attr": {"dtype": {"type": "DT_FLOAT"}, "value": {"tensor": {"dtype": "DT_FLOAT", "tensorShape": {"dim": [{"size": "1"}, {"size": "1"}, {"size": "128"}, {"size": "128"}]}}}}}, {"name": "StatefulPartitionedCall/model/lat_conv2_block3_1_conv/Conv2D_bn_offset", "op": "Const", "attr": {"dtype": {"type": "DT_FLOAT"}, "value": {"tensor": {"dtype": "DT_FLOAT", "tensorShape": {"dim": [{"size": "128"}]}}}}}, {"name": "StatefulPartitionedCall/model/ob_conv4_block3_0_bn/FusedBatchNormV3/Offset", "op": "Const", "attr": {"dtype": {"type": "DT_FLOAT"}, "value": {"tensor": {"dtype": "DT_FLOAT", "tensorShape": {"dim": [{"size": "320"}]}}}}}, {"name": "StatefulPartitionedCall/model/ob_conv2_block3_1_conv/Conv2D_weights", "op": "Const", "attr": {"dtype": {"type": "DT_FLOAT"}, "value": {"tensor": {"dtype": "DT_FLOAT", "tensorShape": {"dim": [{"size": "1"}, {"size": "1"}, {"size": "128"}, {"size": "128"}]}}}}}, {"name": "StatefulPartitionedCall/model/ob_conv2_block3_1_conv/Conv2D_bn_offset", "op": "Const", "attr": {"dtype": {"type": "DT_FLOAT"}, "value": {"tensor": {"dtype": "DT_FLOAT", "tensorShape": {"dim": [{"size": "128"}]}}}}}, {"name": "StatefulPartitionedCall/model/ap_conv2_block4_1_conv/Conv2D_weights", "op": "Const", "attr": {"dtype": {"type": "DT_FLOAT"}, "value": {"tensor": {"dtype": "DT_FLOAT", "tensorShape": {"dim": [{"size": "1"}, {"size": "1"}, {"size": "160"}, {"size": "128"}]}}}}}, {"name": "StatefulPartitionedCall/model/ap_conv2_block4_1_conv/Conv2D_bn_offset", "op": "Const", "attr": {"dtype": {"type": "DT_FLOAT"}, "value": {"tensor": {"dtype": "DT_FLOAT", "tensorShape": {"dim": [{"size": "128"}]}}}}}, {"name": "StatefulPartitionedCall/model/lat_conv4_block3_0_bn/FusedBatchNormV3/Scaled", "op": "Const", "attr": {"dtype": {"type": "DT_FLOAT"}, "value": {"tensor": {"dtype": "DT_FLOAT", "tensorShape": {"dim": [{"size": "320"}]}}}}}, {"name": "StatefulPartitionedCall/model/lat_conv2_block4_1_conv/Conv2D_weights", "op": "Const", "attr": {"dtype": {"type": "DT_FLOAT"}, "value": {"tensor": {"dtype": "DT_FLOAT", "tensorShape": {"dim": [{"size": "1"}, {"size": "1"}, {"size": "160"}, {"size": "128"}]}}}}}, {"name": "StatefulPartitionedCall/model/lat_conv2_block4_1_conv/Conv2D_bn_offset", "op": "Const", "attr": {"dtype": {"type": "DT_FLOAT"}, "value": {"tensor": {"dtype": "DT_FLOAT", "tensorShape": {"dim": [{"size": "128"}]}}}}}, {"name": "StatefulPartitionedCall/model/ob_conv2_block4_1_conv/Conv2D_weights", "op": "Const", "attr": {"dtype": {"type": "DT_FLOAT"}, "value": {"tensor": {"dtype": "DT_FLOAT", "tensorShape": {"dim": [{"size": "1"}, {"size": "1"}, {"size": "160"}, {"size": "128"}]}}}}}, {"name": "StatefulPartitionedCall/model/lat_conv4_block3_0_bn/FusedBatchNormV3/Offset", "op": "Const", "attr": {"value": {"tensor": {"dtype": "DT_FLOAT", "tensorShape": {"dim": [{"size": "320"}]}}}, "dtype": {"type": "DT_FLOAT"}}}, {"name": "StatefulPartitionedCall/model/ob_conv2_block4_1_conv/Conv2D_bn_offset", "op": "Const", "attr": {"value": {"tensor": {"dtype": "DT_FLOAT", "tensorShape": {"dim": [{"size": "128"}]}}}, "dtype": {"type": "DT_FLOAT"}}}, {"name": "StatefulPartitionedCall/model/ap_conv2_block5_1_conv/Conv2D_weights", "op": "Const", "attr": {"dtype": {"type": "DT_FLOAT"}, "value": {"tensor": {"dtype": "DT_FLOAT", "tensorShape": {"dim": [{"size": "1"}, {"size": "1"}, {"size": "192"}, {"size": "128"}]}}}}}, {"name": "StatefulPartitionedCall/model/ap_conv2_block5_1_conv/Conv2D_bn_offset", "op": "Const", "attr": {"dtype": {"type": "DT_FLOAT"}, "value": {"tensor": {"dtype": "DT_FLOAT", "tensorShape": {"dim": [{"size": "128"}]}}}}}, {"name": "StatefulPartitionedCall/model/lat_conv2_block5_1_conv/Conv2D_weights", "op": "Const", "attr": {"dtype": {"type": "DT_FLOAT"}, "value": {"tensor": {"dtype": "DT_FLOAT", "tensorShape": {"dim": [{"size": "1"}, {"size": "1"}, {"size": "192"}, {"size": "128"}]}}}}}, {"name": "StatefulPartitionedCall/model/ap_conv4_block3_0_bn/FusedBatchNormV3/Scaled", "op": "Const", "attr": {"dtype": {"type": "DT_FLOAT"}, "value": {"tensor": {"dtype": "DT_FLOAT", "tensorShape": {"dim": [{"size": "320"}]}}}}}, {"name": "StatefulPartitionedCall/model/lat_conv2_block5_1_conv/Conv2D_bn_offset", "op": "Const", "attr": {"value": {"tensor": {"dtype": "DT_FLOAT", "tensorShape": {"dim": [{"size": "128"}]}}}, "dtype": {"type": "DT_FLOAT"}}}, {"name": "StatefulPartitionedCall/model/ob_conv2_block5_1_conv/Conv2D_weights", "op": "Const", "attr": {"dtype": {"type": "DT_FLOAT"}, "value": {"tensor": {"dtype": "DT_FLOAT", "tensorShape": {"dim": [{"size": "1"}, {"size": "1"}, {"size": "192"}, {"size": "128"}]}}}}}, {"name": "StatefulPartitionedCall/model/ob_conv2_block5_1_conv/Conv2D_bn_offset", "op": "Const", "attr": {"value": {"tensor": {"dtype": "DT_FLOAT", "tensorShape": {"dim": [{"size": "128"}]}}}, "dtype": {"type": "DT_FLOAT"}}}, {"name": "StatefulPartitionedCall/model/ap_conv4_block3_0_bn/FusedBatchNormV3/Offset", "op": "Const", "attr": {"value": {"tensor": {"dtype": "DT_FLOAT", "tensorShape": {"dim": [{"size": "320"}]}}}, "dtype": {"type": "DT_FLOAT"}}}, {"name": "StatefulPartitionedCall/model/ap_conv2_block6_1_conv/Conv2D_weights", "op": "Const", "attr": {"value": {"tensor": {"dtype": "DT_FLOAT", "tensorShape": {"dim": [{"size": "1"}, {"size": "1"}, {"size": "224"}, {"size": "128"}]}}}, "dtype": {"type": "DT_FLOAT"}}}, {"name": "StatefulPartitionedCall/model/ap_conv2_block6_1_conv/Conv2D_bn_offset", "op": "Const", "attr": {"dtype": {"type": "DT_FLOAT"}, "value": {"tensor": {"dtype": "DT_FLOAT", "tensorShape": {"dim": [{"size": "128"}]}}}}}, {"name": "StatefulPartitionedCall/model/lat_conv2_block6_1_conv/Conv2D_weights", "op": "Const", "attr": {"dtype": {"type": "DT_FLOAT"}, "value": {"tensor": {"dtype": "DT_FLOAT", "tensorShape": {"dim": [{"size": "1"}, {"size": "1"}, {"size": "224"}, {"size": "128"}]}}}}}, {"name": "StatefulPartitionedCall/model/lat_conv2_block6_1_conv/Conv2D_bn_offset", "op": "Const", "attr": {"dtype": {"type": "DT_FLOAT"}, "value": {"tensor": {"dtype": "DT_FLOAT", "tensorShape": {"dim": [{"size": "128"}]}}}}}, {"name": "StatefulPartitionedCall/model/ob_conv4_block2_0_bn/FusedBatchNormV3/Scaled", "op": "Const", "attr": {"dtype": {"type": "DT_FLOAT"}, "value": {"tensor": {"dtype": "DT_FLOAT", "tensorShape": {"dim": [{"size": "288"}]}}}}}, {"name": "StatefulPartitionedCall/model/ob_conv2_block6_1_conv/Conv2D_weights", "op": "Const", "attr": {"value": {"tensor": {"dtype": "DT_FLOAT", "tensorShape": {"dim": [{"size": "1"}, {"size": "1"}, {"size": "224"}, {"size": "128"}]}}}, "dtype": {"type": "DT_FLOAT"}}}, {"name": "StatefulPartitionedCall/model/ob_conv2_block6_1_conv/Conv2D_bn_offset", "op": "Const", "attr": {"value": {"tensor": {"dtype": "DT_FLOAT", "tensorShape": {"dim": [{"size": "128"}]}}}, "dtype": {"type": "DT_FLOAT"}}}, {"name": "StatefulPartitionedCall/model/ap_conv3_block1_1_conv/Conv2D_weights", "op": "Const", "attr": {"value": {"tensor": {"dtype": "DT_FLOAT", "tensorShape": {"dim": [{"size": "1"}, {"size": "1"}, {"size": "128"}, {"size": "128"}]}}}, "dtype": {"type": "DT_FLOAT"}}}, {"name": "StatefulPartitionedCall/model/ob_conv4_block2_0_bn/FusedBatchNormV3/Offset", "op": "Const", "attr": {"value": {"tensor": {"dtype": "DT_FLOAT", "tensorShape": {"dim": [{"size": "288"}]}}}, "dtype": {"type": "DT_FLOAT"}}}, {"name": "StatefulPartitionedCall/model/ap_conv3_block1_1_conv/Conv2D_bn_offset", "op": "Const", "attr": {"dtype": {"type": "DT_FLOAT"}, "value": {"tensor": {"dtype": "DT_FLOAT", "tensorShape": {"dim": [{"size": "128"}]}}}}}, {"name": "StatefulPartitionedCall/model/lat_conv3_block1_1_conv/Conv2D_weights", "op": "Const", "attr": {"dtype": {"type": "DT_FLOAT"}, "value": {"tensor": {"dtype": "DT_FLOAT", "tensorShape": {"dim": [{"size": "1"}, {"size": "1"}, {"size": "128"}, {"size": "128"}]}}}}}, {"name": "StatefulPartitionedCall/model/lat_conv3_block1_1_conv/Conv2D_bn_offset", "op": "Const", "attr": {"value": {"tensor": {"dtype": "DT_FLOAT", "tensorShape": {"dim": [{"size": "128"}]}}}, "dtype": {"type": "DT_FLOAT"}}}, {"name": "StatefulPartitionedCall/model/ob_conv3_block1_1_conv/Conv2D_weights", "op": "Const", "attr": {"value": {"tensor": {"dtype": "DT_FLOAT", "tensorShape": {"dim": [{"size": "1"}, {"size": "1"}, {"size": "128"}, {"size": "128"}]}}}, "dtype": {"type": "DT_FLOAT"}}}, {"name": "StatefulPartitionedCall/model/lat_conv4_block2_0_bn/FusedBatchNormV3/Scaled", "op": "Const", "attr": {"value": {"tensor": {"dtype": "DT_FLOAT", "tensorShape": {"dim": [{"size": "288"}]}}}, "dtype": {"type": "DT_FLOAT"}}}, {"name": "StatefulPartitionedCall/model/ob_conv3_block1_1_conv/Conv2D_bn_offset", "op": "Const", "attr": {"dtype": {"type": "DT_FLOAT"}, "value": {"tensor": {"dtype": "DT_FLOAT", "tensorShape": {"dim": [{"size": "128"}]}}}}}, {"name": "StatefulPartitionedCall/model/ap_conv3_block2_1_conv/Conv2D_weights", "op": "Const", "attr": {"value": {"tensor": {"dtype": "DT_FLOAT", "tensorShape": {"dim": [{"size": "1"}, {"size": "1"}, {"size": "160"}, {"size": "128"}]}}}, "dtype": {"type": "DT_FLOAT"}}}, {"name": "StatefulPartitionedCall/model/ap_conv3_block2_1_conv/Conv2D_bn_offset", "op": "Const", "attr": {"value": {"tensor": {"dtype": "DT_FLOAT", "tensorShape": {"dim": [{"size": "128"}]}}}, "dtype": {"type": "DT_FLOAT"}}}, {"name": "StatefulPartitionedCall/model/lat_conv4_block2_0_bn/FusedBatchNormV3/Offset", "op": "Const", "attr": {"value": {"tensor": {"dtype": "DT_FLOAT", "tensorShape": {"dim": [{"size": "288"}]}}}, "dtype": {"type": "DT_FLOAT"}}}, {"name": "StatefulPartitionedCall/model/lat_conv3_block2_1_conv/Conv2D_weights", "op": "Const", "attr": {"dtype": {"type": "DT_FLOAT"}, "value": {"tensor": {"dtype": "DT_FLOAT", "tensorShape": {"dim": [{"size": "1"}, {"size": "1"}, {"size": "160"}, {"size": "128"}]}}}}}, {"name": "StatefulPartitionedCall/model/lat_conv3_block2_1_conv/Conv2D_bn_offset", "op": "Const", "attr": {"value": {"tensor": {"dtype": "DT_FLOAT", "tensorShape": {"dim": [{"size": "128"}]}}}, "dtype": {"type": "DT_FLOAT"}}}, {"name": "StatefulPartitionedCall/model/ob_conv3_block2_1_conv/Conv2D_weights", "op": "Const", "attr": {"value": {"tensor": {"dtype": "DT_FLOAT", "tensorShape": {"dim": [{"size": "1"}, {"size": "1"}, {"size": "160"}, {"size": "128"}]}}}, "dtype": {"type": "DT_FLOAT"}}}, {"name": "StatefulPartitionedCall/model/ob_conv3_block2_1_conv/Conv2D_bn_offset", "op": "Const", "attr": {"dtype": {"type": "DT_FLOAT"}, "value": {"tensor": {"dtype": "DT_FLOAT", "tensorShape": {"dim": [{"size": "128"}]}}}}}, {"name": "StatefulPartitionedCall/model/ap_conv4_block2_0_bn/FusedBatchNormV3/Scaled", "op": "Const", "attr": {"value": {"tensor": {"dtype": "DT_FLOAT", "tensorShape": {"dim": [{"size": "288"}]}}}, "dtype": {"type": "DT_FLOAT"}}}, {"name": "StatefulPartitionedCall/model/ap_conv3_block3_1_conv/Conv2D_weights", "op": "Const", "attr": {"value": {"tensor": {"dtype": "DT_FLOAT", "tensorShape": {"dim": [{"size": "1"}, {"size": "1"}, {"size": "192"}, {"size": "128"}]}}}, "dtype": {"type": "DT_FLOAT"}}}, {"name": "StatefulPartitionedCall/model/ap_conv3_block3_1_conv/Conv2D_bn_offset", "op": "Const", "attr": {"value": {"tensor": {"dtype": "DT_FLOAT", "tensorShape": {"dim": [{"size": "128"}]}}}, "dtype": {"type": "DT_FLOAT"}}}, {"name": "StatefulPartitionedCall/model/lat_conv3_block3_1_conv/Conv2D_weights", "op": "Const", "attr": {"value": {"tensor": {"dtype": "DT_FLOAT", "tensorShape": {"dim": [{"size": "1"}, {"size": "1"}, {"size": "192"}, {"size": "128"}]}}}, "dtype": {"type": "DT_FLOAT"}}}, {"name": "StatefulPartitionedCall/model/ap_conv4_block2_0_bn/FusedBatchNormV3/Offset", "op": "Const", "attr": {"dtype": {"type": "DT_FLOAT"}, "value": {"tensor": {"dtype": "DT_FLOAT", "tensorShape": {"dim": [{"size": "288"}]}}}}}, {"name": "StatefulPartitionedCall/model/lat_conv3_block3_1_conv/Conv2D_bn_offset", "op": "Const", "attr": {"dtype": {"type": "DT_FLOAT"}, "value": {"tensor": {"dtype": "DT_FLOAT", "tensorShape": {"dim": [{"size": "128"}]}}}}}, {"name": "StatefulPartitionedCall/model/ob_conv3_block3_1_conv/Conv2D_weights", "op": "Const", "attr": {"dtype": {"type": "DT_FLOAT"}, "value": {"tensor": {"dtype": "DT_FLOAT", "tensorShape": {"dim": [{"size": "1"}, {"size": "1"}, {"size": "192"}, {"size": "128"}]}}}}}, {"name": "StatefulPartitionedCall/model/ob_conv3_block3_1_conv/Conv2D_bn_offset", "op": "Const", "attr": {"value": {"tensor": {"dtype": "DT_FLOAT", "tensorShape": {"dim": [{"size": "128"}]}}}, "dtype": {"type": "DT_FLOAT"}}}, {"name": "StatefulPartitionedCall/model/ap_conv3_block4_1_conv/Conv2D_weights", "op": "Const", "attr": {"value": {"tensor": {"dtype": "DT_FLOAT", "tensorShape": {"dim": [{"size": "1"}, {"size": "1"}, {"size": "224"}, {"size": "128"}]}}}, "dtype": {"type": "DT_FLOAT"}}}, {"name": "StatefulPartitionedCall/model/ob_conv4_block1_0_bn/FusedBatchNormV3/Scaled", "op": "Const", "attr": {"value": {"tensor": {"dtype": "DT_FLOAT", "tensorShape": {"dim": [{"size": "256"}]}}}, "dtype": {"type": "DT_FLOAT"}}}, {"name": "StatefulPartitionedCall/model/ap_conv3_block4_1_conv/Conv2D_bn_offset", "op": "Const", "attr": {"dtype": {"type": "DT_FLOAT"}, "value": {"tensor": {"dtype": "DT_FLOAT", "tensorShape": {"dim": [{"size": "128"}]}}}}}, {"name": "StatefulPartitionedCall/model/lat_conv3_block4_1_conv/Conv2D_weights", "op": "Const", "attr": {"dtype": {"type": "DT_FLOAT"}, "value": {"tensor": {"dtype": "DT_FLOAT", "tensorShape": {"dim": [{"size": "1"}, {"size": "1"}, {"size": "224"}, {"size": "128"}]}}}}}, {"name": "StatefulPartitionedCall/model/lat_conv3_block4_1_conv/Conv2D_bn_offset", "op": "Const", "attr": {"dtype": {"type": "DT_FLOAT"}, "value": {"tensor": {"dtype": "DT_FLOAT", "tensorShape": {"dim": [{"size": "128"}]}}}}}, {"name": "StatefulPartitionedCall/model/ob_conv4_block1_0_bn/FusedBatchNormV3/Offset", "op": "Const", "attr": {"dtype": {"type": "DT_FLOAT"}, "value": {"tensor": {"dtype": "DT_FLOAT", "tensorShape": {"dim": [{"size": "256"}]}}}}}, {"name": "StatefulPartitionedCall/model/ob_conv3_block4_1_conv/Conv2D_weights", "op": "Const", "attr": {"value": {"tensor": {"dtype": "DT_FLOAT", "tensorShape": {"dim": [{"size": "1"}, {"size": "1"}, {"size": "224"}, {"size": "128"}]}}}, "dtype": {"type": "DT_FLOAT"}}}, {"name": "StatefulPartitionedCall/model/ob_conv3_block4_1_conv/Conv2D_bn_offset", "op": "Const", "attr": {"value": {"tensor": {"dtype": "DT_FLOAT", "tensorShape": {"dim": [{"size": "128"}]}}}, "dtype": {"type": "DT_FLOAT"}}}, {"name": "StatefulPartitionedCall/model/ap_conv3_block5_1_conv/Conv2D_weights", "op": "Const", "attr": {"dtype": {"type": "DT_FLOAT"}, "value": {"tensor": {"dtype": "DT_FLOAT", "tensorShape": {"dim": [{"size": "1"}, {"size": "1"}, {"size": "256"}, {"size": "128"}]}}}}}, {"name": "StatefulPartitionedCall/model/ap_conv3_block5_1_conv/Conv2D_bn_offset", "op": "Const", "attr": {"value": {"tensor": {"dtype": "DT_FLOAT", "tensorShape": {"dim": [{"size": "128"}]}}}, "dtype": {"type": "DT_FLOAT"}}}, {"name": "StatefulPartitionedCall/model/ob_pool3_bn/FusedBatchNormV3/Scaled", "op": "Const", "attr": {"dtype": {"type": "DT_FLOAT"}, "value": {"tensor": {"dtype": "DT_FLOAT", "tensorShape": {"dim": [{"size": "512"}]}}}}}, {"name": "StatefulPartitionedCall/model/lat_conv3_block5_1_conv/Conv2D_weights", "op": "Const", "attr": {"dtype": {"type": "DT_FLOAT"}, "value": {"tensor": {"dtype": "DT_FLOAT", "tensorShape": {"dim": [{"size": "1"}, {"size": "1"}, {"size": "256"}, {"size": "128"}]}}}}}, {"name": "StatefulPartitionedCall/model/lat_conv3_block5_1_conv/Conv2D_bn_offset", "op": "Const", "attr": {"value": {"tensor": {"dtype": "DT_FLOAT", "tensorShape": {"dim": [{"size": "128"}]}}}, "dtype": {"type": "DT_FLOAT"}}}, {"name": "StatefulPartitionedCall/model/ob_conv3_block5_1_conv/Conv2D_weights", "op": "Const", "attr": {"value": {"tensor": {"dtype": "DT_FLOAT", "tensorShape": {"dim": [{"size": "1"}, {"size": "1"}, {"size": "256"}, {"size": "128"}]}}}, "dtype": {"type": "DT_FLOAT"}}}, {"name": "StatefulPartitionedCall/model/ob_pool3_bn/FusedBatchNormV3/Offset", "op": "Const", "attr": {"dtype": {"type": "DT_FLOAT"}, "value": {"tensor": {"dtype": "DT_FLOAT", "tensorShape": {"dim": [{"size": "512"}]}}}}}, {"name": "StatefulPartitionedCall/model/ob_conv3_block5_1_conv/Conv2D_bn_offset", "op": "Const", "attr": {"dtype": {"type": "DT_FLOAT"}, "value": {"tensor": {"dtype": "DT_FLOAT", "tensorShape": {"dim": [{"size": "128"}]}}}}}, {"name": "StatefulPartitionedCall/model/ap_conv3_block6_1_conv/Conv2D_weights", "op": "Const", "attr": {"value": {"tensor": {"dtype": "DT_FLOAT", "tensorShape": {"dim": [{"size": "1"}, {"size": "1"}, {"size": "288"}, {"size": "128"}]}}}, "dtype": {"type": "DT_FLOAT"}}}, {"name": "StatefulPartitionedCall/model/ap_conv3_block6_1_conv/Conv2D_bn_offset", "op": "Const", "attr": {"dtype": {"type": "DT_FLOAT"}, "value": {"tensor": {"dtype": "DT_FLOAT", "tensorShape": {"dim": [{"size": "128"}]}}}}}, {"name": "StatefulPartitionedCall/model/lat_conv3_block6_1_conv/Conv2D_weights", "op": "Const", "attr": {"dtype": {"type": "DT_FLOAT"}, "value": {"tensor": {"dtype": "DT_FLOAT", "tensorShape": {"dim": [{"size": "1"}, {"size": "1"}, {"size": "288"}, {"size": "128"}]}}}}}, {"name": "StatefulPartitionedCall/model/lat_conv4_block1_0_bn/FusedBatchNormV3/Scaled", "op": "Const", "attr": {"value": {"tensor": {"dtype": "DT_FLOAT", "tensorShape": {"dim": [{"size": "256"}]}}}, "dtype": {"type": "DT_FLOAT"}}}, {"name": "StatefulPartitionedCall/model/lat_conv3_block6_1_conv/Conv2D_bn_offset", "op": "Const", "attr": {"value": {"tensor": {"dtype": "DT_FLOAT", "tensorShape": {"dim": [{"size": "128"}]}}}, "dtype": {"type": "DT_FLOAT"}}}, {"name": "StatefulPartitionedCall/model/ob_conv3_block6_1_conv/Conv2D_weights", "op": "Const", "attr": {"value": {"tensor": {"dtype": "DT_FLOAT", "tensorShape": {"dim": [{"size": "1"}, {"size": "1"}, {"size": "288"}, {"size": "128"}]}}}, "dtype": {"type": "DT_FLOAT"}}}, {"name": "StatefulPartitionedCall/model/ob_conv3_block6_1_conv/Conv2D_bn_offset", "op": "Const", "attr": {"dtype": {"type": "DT_FLOAT"}, "value": {"tensor": {"dtype": "DT_FLOAT", "tensorShape": {"dim": [{"size": "128"}]}}}}}, {"name": "StatefulPartitionedCall/model/lat_conv4_block1_0_bn/FusedBatchNormV3/Offset", "op": "Const", "attr": {"value": {"tensor": {"dtype": "DT_FLOAT", "tensorShape": {"dim": [{"size": "256"}]}}}, "dtype": {"type": "DT_FLOAT"}}}, {"name": "StatefulPartitionedCall/model/ap_conv3_block7_1_conv/Conv2D_weights", "op": "Const", "attr": {"value": {"tensor": {"dtype": "DT_FLOAT", "tensorShape": {"dim": [{"size": "1"}, {"size": "1"}, {"size": "320"}, {"size": "128"}]}}}, "dtype": {"type": "DT_FLOAT"}}}, {"name": "StatefulPartitionedCall/model/ap_conv3_block7_1_conv/Conv2D_bn_offset", "op": "Const", "attr": {"dtype": {"type": "DT_FLOAT"}, "value": {"tensor": {"dtype": "DT_FLOAT", "tensorShape": {"dim": [{"size": "128"}]}}}}}, {"name": "StatefulPartitionedCall/model/lat_conv3_block7_1_conv/Conv2D_weights", "op": "Const", "attr": {"value": {"tensor": {"dtype": "DT_FLOAT", "tensorShape": {"dim": [{"size": "1"}, {"size": "1"}, {"size": "320"}, {"size": "128"}]}}}, "dtype": {"type": "DT_FLOAT"}}}, {"name": "StatefulPartitionedCall/model/lat_conv3_block7_1_conv/Conv2D_bn_offset", "op": "Const", "attr": {"value": {"tensor": {"dtype": "DT_FLOAT", "tensorShape": {"dim": [{"size": "128"}]}}}, "dtype": {"type": "DT_FLOAT"}}}, {"name": "StatefulPartitionedCall/model/lat_pool3_bn/FusedBatchNormV3/Scaled", "op": "Const", "attr": {"value": {"tensor": {"dtype": "DT_FLOAT", "tensorShape": {"dim": [{"size": "512"}]}}}, "dtype": {"type": "DT_FLOAT"}}}, {"name": "StatefulPartitionedCall/model/ob_conv3_block7_1_conv/Conv2D_weights", "op": "Const", "attr": {"value": {"tensor": {"dtype": "DT_FLOAT", "tensorShape": {"dim": [{"size": "1"}, {"size": "1"}, {"size": "320"}, {"size": "128"}]}}}, "dtype": {"type": "DT_FLOAT"}}}, {"name": "StatefulPartitionedCall/model/ob_conv3_block7_1_conv/Conv2D_bn_offset", "op": "Const", "attr": {"value": {"tensor": {"dtype": "DT_FLOAT", "tensorShape": {"dim": [{"size": "128…
_1_conv/Conv2D_bn_offset", "shape": [128], "dtype": "float32"}, {"name": "StatefulPartitionedCall/model/ob_conv5_block29_1_conv/Conv2D_weights", "shape": [1, 1, 1536, 128], "dtype": "float32"}, {"name": "StatefulPartitionedCall/model/ob_conv5_block29_1_conv/Conv2D_bn_offset", "shape": [128], "dtype": "float32"}, {"name": "StatefulPartitionedCall/model/ap_conv5_block30_1_conv/Conv2D_weights", "shape": [1, 1, 1568, 128], "dtype": "float32"}, {"name": "StatefulPartitionedCall/model/ob_conv2_block1_0_bn/FusedBatchNormV3/Scaled", "shape": [64], "dtype": "float32"}, {"name": "StatefulPartitionedCall/model/ap_conv5_block30_1_conv/Conv2D_bn_offset", "shape": [128], "dtype": "float32"}, {"name": "StatefulPartitionedCall/model/lat_conv5_block30_1_conv/Conv2D_weights", "shape": [1, 1, 1568, 128], "dtype": "float32"}, {"name": "StatefulPartitionedCall/model/lat_conv5_block30_1_conv/Conv2D_bn_offset", "shape": [128], "dtype": "float32"}, {"name": "StatefulPartitionedCall/model/ob_conv2_block1_0_bn/FusedBatchNormV3/Offset", "shape": [64], "dtype": "float32"}, {"name": "StatefulPartitionedCall/model/ob_conv5_block30_1_conv/Conv2D_weights", "shape": [1, 1, 1568, 128], "dtype": "float32"}, {"name": "StatefulPartitionedCall/model/ob_conv5_block30_1_conv/Conv2D_bn_offset", "shape": [128], "dtype": "float32"}, {"name": "StatefulPartitionedCall/model/ap_conv5_block31_1_conv/Conv2D_weights", "shape": [1, 1, 1600, 128], "dtype": "float32"}, {"name": "StatefulPartitionedCall/model/ap_conv5_block31_1_conv/Conv2D_bn_offset", "shape": [128], "dtype": "float32"}, {"name": "StatefulPartitionedCall/model/lat_conv2_block1_0_bn/FusedBatchNormV3/Scaled", "shape": [64], "dtype": "float32"}, {"name": "StatefulPartitionedCall/model/lat_conv5_block31_1_conv/Conv2D_weights", "shape": [1, 1, 1600, 128], "dtype": "float32"}, {"name": "StatefulPartitionedCall/model/lat_conv5_block31_1_conv/Conv2D_bn_offset", "shape": [128], "dtype": "float32"}, {"name": "StatefulPartitionedCall/model/ob_conv5_block31_1_conv/Conv2D_weights", "shape": [1, 1, 1600, 128], "dtype": "float32"}, {"name": "StatefulPartitionedCall/model/lat_conv2_block1_0_bn/FusedBatchNormV3/Offset", "shape": [64], "dtype": "float32"}, {"name": "StatefulPartitionedCall/model/ob_conv5_block31_1_conv/Conv2D_bn_offset", "shape": [128], "dtype": "float32"}, {"name": "StatefulPartitionedCall/model/ap_conv5_block32_1_conv/Conv2D_weights", "shape": [1, 1, 1632, 128], "dtype": "float32"}, {"name": "StatefulPartitionedCall/model/ap_conv5_block32_1_conv/Conv2D_bn_offset", "shape": [128], "dtype": "float32"}, {"name": "StatefulPartitionedCall/model/lat_conv5_block32_1_conv/Conv2D_weights", "shape": [1, 1, 1632, 128], "dtype": "float32"}, {"name": "StatefulPartitionedCall/model/ap_conv2_block1_0_bn/FusedBatchNormV3/Scaled", "shape": [64], "dtype": "float32"}, {"name": "StatefulPartitionedCall/model/lat_conv5_block32_1_conv/Conv2D_bn_offset", "shape": [128], "dtype": "float32"}, {"name": "StatefulPartitionedCall/model/ob_conv5_block32_1_conv/Conv2D_weights", "shape": [1, 1, 1632, 128], "dtype": "float32"}, {"name": "StatefulPartitionedCall/model/ob_conv5_block32_1_conv/Conv2D_bn_offset", "shape": [128], "dtype": "float32"}, {"name": "StatefulPartitionedCall/model/ap_conv2_block1_0_bn/FusedBatchNormV3/Offset", "shape": [64], "dtype": "float32"}, {"name": "StatefulPartitionedCall/model/ob_bn/FusedBatchNormV3/Scaled", "shape": [1664], "dtype": "float32"}, {"name": "StatefulPartitionedCall/model/ob_bn/FusedBatchNormV3/Offset", "shape": [1664], "dtype": "float32"}, {"name": "StatefulPartitionedCall/model/lat_bn/FusedBatchNormV3/Scaled", "shape": [1664], "dtype": "float32"}, {"name": "StatefulPartitionedCall/model/lat_bn/FusedBatchNormV3/Offset", "shape": [1664], "dtype": "float32"}, {"name": "StatefulPartitionedCall/model/ap_bn/FusedBatchNormV3/Scaled", "shape": [1664], "dtype": "float32"}, {"name": "StatefulPartitionedCall/model/ap_bn/FusedBatchNormV3/Offset", "shape": [1664], "dtype": "float32"}, {"name": "StatefulPartitionedCall/model/ob_conv5_block32_0_bn/FusedBatchNormV3/Scaled", "shape": [1632], "dtype": "float32"}, {"name": "StatefulPartitionedCall/model/ob_conv5_block32_0_bn/FusedBatchNormV3/Offset", "shape": [1632], "dtype": "float32"}, {"name": "StatefulPartitionedCall/model/lat_conv5_block32_0_bn/FusedBatchNormV3/Scaled", "shape": [1632], "dtype": "float32"}, {"name": "StatefulPartitionedCall/model/lat_conv5_block32_0_bn/FusedBatchNormV3/Offset", "shape": [1632], "dtype": "float32"}, {"name": "StatefulPartitionedCall/model/ap_conv5_block32_0_bn/FusedBatchNormV3/Scaled", "shape": [1632], "dtype": "float32"}, {"name": "StatefulPartitionedCall/model/ap_conv5_block32_0_bn/FusedBatchNormV3/Offset", "shape": [1632], "dtype": "float32"}, {"name": "StatefulPartitionedCall/model/ob_conv5_block31_0_bn/FusedBatchNormV3/Scaled", "shape": [1600], "dtype": "float32"}, {"name": "StatefulPartitionedCall/model/ob_conv5_block31_0_bn/FusedBatchNormV3/Offset", "shape": [1600], "dtype": "float32"}, {"name": "StatefulPartitionedCall/model/lat_conv5_block31_0_bn/FusedBatchNormV3/Scaled", "shape": [1600], "dtype": "float32"}, {"name": "StatefulPartitionedCall/model/lat_conv5_block31_0_bn/FusedBatchNormV3/Offset", "shape": [1600], "dtype": "float32"}, {"name": "StatefulPartitionedCall/model/ap_conv5_block31_0_bn/FusedBatchNormV3/Scaled", "shape": [1600], "dtype": "float32"}, {"name": "StatefulPartitionedCall/model/ap_conv5_block31_0_bn/FusedBatchNormV3/Offset", "shape": [1600], "dtype": "float32"}, {"name": "StatefulPartitionedCall/model/ob_conv5_block30_0_bn/FusedBatchNormV3/Scaled", "shape": [1568], "dtype": "float32"}, {"name": "StatefulPartitionedCall/model/ob_conv5_block30_0_bn/FusedBatchNormV3/Offset", "shape": [1568], "dtype": "float32"}, {"name": "StatefulPartitionedCall/model/lat_conv5_block30_0_bn/FusedBatchNormV3/Scaled", "shape": [1568], "dtype": "float32"}, {"name": "StatefulPartitionedCall/model/lat_conv5_block30_0_bn/FusedBatchNormV3/Offset", "shape": [1568], "dtype": "float32"}, {"name": "StatefulPartitionedCall/model/ap_conv5_block30_0_bn/FusedBatchNormV3/Scaled", "shape": [1568], "dtype": "float32"}, {"name": "StatefulPartitionedCall/model/ap_conv5_block30_0_bn/FusedBatchNormV3/Offset", "shape": [1568], "dtype": "float32"}, {"name": "StatefulPartitionedCall/model/ob_conv5_block29_0_bn/FusedBatchNormV3/Scaled", "shape": [1536], "dtype": "float32"}, {"name": "StatefulPartitionedCall/model/ob_conv5_block29_0_bn/FusedBatchNormV3/Offset", "shape": [1536], "dtype": "float32"}, {"name": "StatefulPartitionedCall/model/lat_conv5_block29_0_bn/FusedBatchNormV3/Scaled", "shape": [1536], "dtype": "float32"}, {"name": "StatefulPartitionedCall/model/lat_conv5_block29_0_bn/FusedBatchNormV3/Offset", "shape": [1536], "dtype": "float32"}, {"name": "StatefulPartitionedCall/model/ap_conv5_block29_0_bn/FusedBatchNormV3/Scaled", "shape": [1536], "dtype": "float32"}, {"name": "StatefulPartitionedCall/model/ap_conv5_block29_0_bn/FusedBatchNormV3/Offset", "shape": [1536], "dtype": "float32"}, {"name": "StatefulPartitionedCall/model/ob_conv5_block28_0_bn/FusedBatchNormV3/Scaled", "shape": [1504], "dtype": "float32"}, {"name": "StatefulPartitionedCall/model/ob_conv5_block28_0_bn/FusedBatchNormV3/Offset", "shape": [1504], "dtype": "float32"}, {"name": "StatefulPartitionedCall/model/lat_conv5_block28_0_bn/FusedBatchNormV3/Scaled", "shape": [1504], "dtype": "float32"}, {"name": "StatefulPartitionedCall/model/lat_conv5_block28_0_bn/FusedBatchNormV3/Offset", "shape": [1504], "dtype": "float32"}, {"name": "StatefulPartitionedCall/model/ap_conv5_block28_0_bn/FusedBatchNormV3/Scaled", "shape": [1504], "dtype": "float32"}, {"name": "StatefulPartitionedCall/model/ap_conv5_block28_0_bn/FusedBatchNormV3/Offset", "shape": [1504], "dtype": "float32"}, {"name": "StatefulPartitionedCall/model/ob_conv5_block27_0_bn/FusedBatchNormV3/Scaled", "shape": [1472], "dtype": "float32"}, {"name": "StatefulPartitionedCall/model/ob_conv5_block27_0_bn/FusedBatchNormV3/Offset", "shape": [1472], "dtype": "float32"}, {"name": "StatefulPartitionedCall/model/lat_conv5_block27_0_bn/FusedBatchNormV3/Scaled", "shape": [1472], "dtype": "float32"}, {"name": "StatefulPartitionedCall/model/lat_conv5_block27_0_bn/FusedBatchNormV3/Offset", "shape": [1472], "dtype": "float32"}, {"name": "StatefulPartitionedCall/model/ap_conv5_block27_0_bn/FusedBatchNormV3/Scaled", "shape": [1472], "dtype": "float32"}, {"name": "StatefulPartitionedCall/model/ap_conv5_block27_0_bn/FusedBatchNormV3/Offset", "shape": [1472], "dtype": "float32"}, {"name": "StatefulPartitionedCall/model/ob_conv5_block26_0_bn/FusedBatchNormV3/Scaled", "shape": [1440], "dtype": "float32"}, {"name": "StatefulPartitionedCall/model/ob_conv5_block26_0_bn/FusedBatchNormV3/Offset", "shape": [1440], "dtype": "float32"}, {"name": "StatefulPartitionedCall/model/lat_conv5_block26_0_bn/FusedBatchNormV3/Scaled", "shape": [1440], "dtype": "float32"}, {"name": "StatefulPartitionedCall/model/lat_conv5_block26_0_bn/FusedBatchNormV3/Offset", "shape": [1440], "dtype": "float32"}, {"name": "StatefulPartitionedCall/model/ap_conv5_block26_0_bn/FusedBatchNormV3/Scaled", "shape": [1440], "dtype": "float32"}, {"name": "StatefulPartitionedCall/model/ap_conv5_block26_0_bn/FusedBatchNormV3/Offset", "shape": [1440], "dtype": "float32"}, {"name": "StatefulPartitionedCall/model/ob_conv5_block25_0_bn/FusedBatchNormV3/Scaled", "shape": [1408], "dtype": "float32"}, {"name": "StatefulPartitionedCall/model/ob_conv5_block25_0_bn/FusedBatchNormV3/Offset", "shape": [1408], "dtype": "float32"}, {"name": "StatefulPartitionedCall/model/lat_conv5_block25_0_bn/FusedBatchNormV3/Scaled", "shape": [1408], "dtype": "float32"}, {"name": "StatefulPartitionedCall/model/lat_conv5_block25_0_bn/FusedBatchNormV3/Offset", "shape": [1408], "dtype": "float32"}, {"name": "StatefulPartitionedCall/model/ap_conv5_block25_0_bn/FusedBatchNormV3/Scaled", "shape": [1408], "dtype": "float32"}, {"name": "StatefulPartitionedCall/model/ap_conv5_block25_0_bn/FusedBatchNormV3/Offset", "shape": [1408], "dtype": "float32"}, {"name": "StatefulPartitionedCall/model/ob_conv5_block24_0_bn/FusedBatchNormV3/Scaled", "shape": [1376], "dtype": "float32"}, {"name": "StatefulPartitionedCall/model/ob_conv5_block24_0_bn/FusedBatchNormV3/Offset", "shape": [1376], "dtype": "float32"}, {"name": "StatefulPartitionedCall/model/lat_conv5_block24_0_bn/FusedBatchNormV3/Scaled", "shape": [1376], "dtype": "float32"}, {"name": "StatefulPartitionedCall/model/lat_conv5_block24_0_bn/FusedBatchNormV3/Offset", "shape": [1376], "dtype": "float32"}, {"name": "StatefulPartitionedCall/model/ap_conv5_block24_0_bn/FusedBatchNormV3/Scaled", "shape": [1376], "dtype": "float32"}, {"name": "StatefulPartitionedCall/model/ap_conv5_block24_0_bn/FusedBatchNormV3/Offset", "shape": [1376], "dtype": "float32"}, {"name": "StatefulPartitionedCall/model/ob_conv5_block23_0_bn/FusedBatchNormV3/Scaled", "shape": [1344], "dtype": "float32"}, {"name": "StatefulPartitionedCall/model/ob_conv5_block23_0_bn/FusedBatchNormV3/Offset", "shape": [1344], "dtype": "float32"}, {"name": "StatefulPartitionedCall/model/lat_conv5_block23_0_bn/FusedBatchNormV3/Scaled", "shape": [1344], "dtype": "float32"}, {"name": "StatefulPartitionedCall/model/lat_conv5_block23_0_bn/FusedBatchNormV3/Offset", "shape": [1344], "dtype": "float32"}, {"name": "StatefulPartitionedCall/model/ap_conv5_block23_0_bn/FusedBatchNormV3/Scaled", "shape": [1344], "dtype": "float32"}, {"name": "StatefulPartitionedCall/model/ap_conv5_block23_0_bn/FusedBatchNormV3/Offset", "shape": [1344], "dtype": "float32"}, {"name": "StatefulPartitionedCall/model/ob_conv5_block22_0_bn/FusedBatchNormV3/Scaled", "shape": [1312], "dtype": "float32"}, {"name": "StatefulPartitionedCall/model/ob_conv5_block22_0_bn/FusedBatchNormV3/Offset", "shape": [1312], "dtype": "float32"}, {"name": "StatefulPartitionedCall/model/lat_conv5_block22_0_bn/FusedBatchNormV3/Scaled", "shape": [1312], "dtype": "float32"}, {"name": "StatefulPartitionedCall/model/lat_conv5_block22_0_bn/FusedBatchNormV3/Offset", "shape": [1312], "dtype": "float32"}, {"name": "StatefulPartitionedCall/model/ap_conv5_block22_0_bn/FusedBatchNormV3/Scaled", "shape": [1312], "dtype": "float32"}, {"name": "StatefulPartitionedCall/model/ap_conv5_block22_0_bn/FusedBatchNormV3/Offset", "shape": [1312], "dtype": "float32"}, {"name": "StatefulPartitionedCall/model/ob_conv5_block21_0_bn/FusedBatchNormV3/Scaled", "shape": [1280], "dtype": "float32"}, {"name": "StatefulPartitionedCall/model/ob_conv5_block21_0_bn/FusedBatchNormV3/Offset", "shape": [1280], "dtype": "float32"}, {"name": "StatefulPartitionedCall/model/lat_conv5_block21_0_bn/FusedBatchNormV3/Scaled", "shape": [1280], "dtype": "float32"}, {"name": "StatefulPartitionedCall/model/lat_conv5_block21_0_bn/FusedBatchNormV3/Offset", "shape": [1280], "dtype": "float32"}, {"name": "StatefulPartitionedCall/model/ap_conv5_block21_0_bn/FusedBatchNormV3/Scaled", "shape": [1280], "dtype": "float32"}, {"name": "StatefulPartitionedCall/model/ap_conv5_block21_0_bn/FusedBatchNormV3/Offset", "shape": [1280], "dtype": "float32"}, {"name": "StatefulPartitionedCall/model/ob_conv5_block20_0_bn/FusedBatchNormV3/Scaled", "shape": [1248], "dtype": "float32"}, {"name": "StatefulPartitionedCall/model/ob_conv5_block20_0_bn/FusedBatchNormV3/Offset", "shape": [1248], "dtype": "float32"}, {"name": "StatefulPartitionedCall/model/lat_conv5_block20_0_bn/FusedBatchNormV3/Scaled", "shape": [1248], "dtype": "float32"}, {"name": "StatefulPartitionedCall/model/lat_conv5_block20_0_bn/FusedBatchNormV3/Offset", "shape": [1248], "dtype": "float32"}, {"name": "StatefulPartitionedCall/model/ap_conv5_block20_0_bn/FusedBatchNormV3/Scaled", "shape": [1248], "dtype": "float32"}, {"name": "StatefulPartitionedCall/model/ap_conv5_block20_0_bn/FusedBatchNormV3/Offset", "shape": [1248], "dtype": "float32"}, {"name": "StatefulPartitionedCall/model/ob_conv5_block19_0_bn/FusedBatchNormV3/Scaled", "shape": [1216], "dtype": "float32"}, {"name": "StatefulPartitionedCall/model/ob_conv5_block19_0_bn/FusedBatchNormV3/Offset", "shape": [1216], "dtype": "float32"}, {"name": "StatefulPartitionedCall/model/lat_conv5_block19_0_bn/FusedBatchNormV3/Scaled", "shape": [1216], "dtype": "float32"}, {"name": "StatefulPartitionedCall/model/lat_conv5_block19_0_bn/FusedBatchNormV3/Offset", "shape": [1216], "dtype": "float32"}, {"name": "StatefulPartitionedCall/model/ap_conv5_block19_0_bn/FusedBatchNormV3/Scaled", "shape": [1216], "dtype": "float32"}, {"name": "StatefulPartitionedCall/model/ap_conv5_block19_0_bn/FusedBatchNormV3/Offset", "shape": [1216], "dtype": "float32"}, {"name": "StatefulPartitionedCall/model/ob_conv5_block18_0_bn/FusedBatchNormV3/Scaled", "shape": [1184], "dtype": "float32"}, {"name": "StatefulPartitionedCall/model/ob_conv5_block18_0_bn/FusedBatchNormV3/Offset", "shape": [1184], "dtype": "float32"}, {"name": "StatefulPartitionedCall/model/lat_conv5_block18_0_bn/FusedBatchNormV3/Scaled", "shape": [1184], "dtype": "float32"}, {"name": "StatefulPartitionedCall/model/lat_conv5_block18_0_bn/FusedBatchNormV3/Offset", "shape": [1184], "dtype": "float32"}, {"name": "StatefulPartitionedCall/model/ap_conv5_block18_0_bn/FusedBatchNormV3/Scaled", "shape": [1184], "dtype": "float32"}, {"name": "StatefulPartitionedCall/model/ap_conv5_block18_0_bn/FusedBatchNormV3/Offset", "shape": [1184], "dtype": "float32"}, {"name": "StatefulPartitionedCall/model/ob_conv5_block17_0_bn/FusedBatchNormV3/Scaled", "shape": [1152], "dtype": "float32"}, {"name": "StatefulPartitionedCall/model/ob_conv5_block17_0_bn/FusedBatchNormV3/Offset", "shape": [1152], "dtype": "float32"}, {"name": "StatefulPartitionedCall/model/lat_conv5_block17_0_bn/FusedBatchNormV3/Scaled", "shape": [1152], "dtype": "float32"}, {"name": "StatefulPartitionedCall/model/lat_conv5_block17_0_bn/FusedBatchNormV3/Offset", "shape": [1152], "dtype": "float32"}, {"name": "StatefulPartitionedCall/model/ap_conv5_block17_0_bn/FusedBatchNormV3/Scaled", "shape": [1152], "dtype": "float32"}, {"name": "StatefulPartitionedCall/model/ap_conv5_block17_0_bn/FusedBatchNormV3/Offset", "shape": [1152], "dtype": "float32"}, {"name": "StatefulPartitionedCall/model/ob_conv5_block16_0_bn/FusedBatchNormV3/Scaled", "shape": [1120], "dtype": "float32"}, {"name": "StatefulPartitionedCall/model/ob_conv5_block16_0_bn/FusedBatchNormV3/Offset", "shape": [1120], "dtype": "float32"}, {"name": "StatefulPartitionedCall/model/lat_conv5_block16_0_bn/FusedBatchNormV3/Scaled", "shape": [1120], "dtype": "float32"}, {"name": "StatefulPartitionedCall/model/lat_conv5_block16_0_bn/FusedBatchNormV3/Offset", "shape": [1120], "dtype": "float32"}, {"name": "StatefulPartitionedCall/model/ap_conv5_block16_0_bn/FusedBatchNormV3/Scaled", "shape": [1120], "dtype": "float32"}, {"name": "StatefulPartitionedCall/model/ap_conv5_block16_0_bn/FusedBatchNormV3/Offset", "shape": [1120], "dtype": "float32"}, {"name": "StatefulPartitionedCall/model/ob_conv5_block15_0_bn/FusedBatchNormV3/Scaled", "shape": [1088], "dtype": "float32"}, {"name": "StatefulPartitionedCall/model/ob_conv5_block15_0_bn/FusedBatchNormV3/Offset", "shape": [1088], "dtype": "float32"}, {"name": "StatefulPartitionedCall/model/lat_conv5_block15_0_bn/FusedBatchNormV3/Scaled", "shape": [1088], "dtype": "float32"}, {"name": "StatefulPartitionedCall/model/lat_conv5_block15_0_bn/FusedBatchNormV3/Offset", "shape": [1088], "dtype": "float32"}, {"name": "StatefulPartitionedCall/model/ap_conv5_block15_0_bn/FusedBatchNormV3/Scaled", "shape": [1088], "dtype": "float32"}, {"name": "StatefulPartitionedCall/model/ap_conv5_block15_0_bn/FusedBatchNormV3/Offset", "shape": [1088], "dtype": "float32"}, {"name": "StatefulPartitionedCall/model/ob_conv5_block14_0_bn/FusedBatchNormV3/Scaled", "shape": [1056], "dtype": "float32"}, {"name": "StatefulPartitionedCall/model/ob_conv5_block14_0_bn/FusedBatchNormV3/Offset", "shape": [1056], "dtype": "float32"}, {"name": "StatefulPartitionedCall/model/lat_conv5_block14_0_bn/FusedBatchNormV3/Scaled", "shape": [1056], "dtype": "float32"}, {"name": "StatefulPartitionedCall/model/lat_conv5_block14_0_bn/FusedBatchNormV3/Offset", "shape": [1056], "dtype": "float32"}, {"name": "StatefulPartitionedCall/model/ap_conv5_block14_0_bn/FusedBatchNormV3/Scaled", "shape": [1056], "dtype": "float32"}, {"name": "StatefulPartitionedCall/model/ap_conv5_block14_0_bn/FusedBatchNormV3/Offset", "shape": [1056], "dtype": "float32"}, {"name": "StatefulPartitionedCall/model/ob_conv5_block13_0_bn/FusedBatchNormV3/Scaled", "shape": [1024], "dtype": "float32"}, {"name": "StatefulPartitionedCall/model/ob_conv5_block13_0_bn/FusedBatchNormV3/Offset", "shape": [1024], "dtype": "float32"}, {"name": "StatefulPartitionedCall/model/lat_conv5_block13_0_bn/FusedBatchNormV3/Scaled", "shape": [1024], "dtype": "float32"}, {"name": "StatefulPartitionedCall/model/lat_conv5_block13_0_bn/FusedBatchNormV3/Offset", "shape": [1024], "dtype": "float32"}, {"name": "StatefulPartitionedCall/model/ap_conv5_block13_0_bn/FusedBatchNormV3/Scaled", "shape": [1024], "dtype": "float32"}, {"name": "StatefulPartitionedCall/model/ap_conv5_block13_0_bn/FusedBatchNormV3/Offset", "shape": [1024], "dtype": "float32"}, {"name": "StatefulPartitionedCall/model/ob_conv5_block12_0_bn/FusedBatchNormV3/Scaled", "shape": [992], "dtype": "float32"}, {"name": "StatefulPartitionedCall/model/ob_conv5_block12_0_bn/FusedBatchNormV3/Offset", "shape": [992], "dtype": "float32"}, {"name": "StatefulPartitionedCall/model/lat_conv5_block12_0_bn/FusedBatchNormV3/Scaled", "shape": [992], "dtype": "float32"}, {"name": "StatefulPartitionedCall/model/lat_conv5_block12_0_bn/FusedBatchNormV3/Offset", "shape": [992], "dtype": "float32"}, {"name": "StatefulPartitionedCall/model/ap_conv5_block12_0_bn/FusedBatchNormV3/Scaled", "shape": [992], "dtype": "float32"}, {"name": "StatefulPartitionedCall/model/ap_conv5_block12_0_bn/FusedBatchNormV3/Offset", "shape": [992], "dtype": "float32"}, {"name": "StatefulPartitionedCall/model/ob_conv5_block11_0_bn/FusedBatchNormV3/Scaled", "shape": [960], "dtype": "float32"}, {"name": "StatefulPartitionedCall/model/ob_conv5_block11_0_bn/FusedBatchNormV3/Offset", "shape": [960], "dtype": "float32"}, {"name": "StatefulPartitionedCall/model/lat_conv5_block11_0_bn/FusedBatchNormV3/Scaled", "shape": [960], "dtype": "float32"}, {"name": "StatefulPartitionedCall/model/lat_conv5_block11_0_bn/FusedBatchNormV3/Offset", "shape": [960], "dtype": "float32"}, {"name": "StatefulPartitionedCall/model/ap_conv5_block11_0_bn/FusedBatchNormV3/Scaled", "shape": [960], "dtype": "float32"}, {"name": "StatefulPartitionedCall/model/ap_conv5_block11_0_bn/FusedBatchNormV3/Offset", "shape": [960], "dtype": "float32"}, {"name": "StatefulPartitionedCall/model/ob_conv5_block10_0_bn/FusedBatchNormV3/Scaled", "shape": [928], "dtype": "float32"}, {"name": "StatefulPartitionedCall/model/ob_conv5_block10_0_bn/FusedBatchNormV3/Offset", "shape": [928], "dtype": "float32"}, {"name": "StatefulPartitionedCall/model/lat_conv5_block10_0_bn/FusedBatchNormV3/Scaled", "shape": [928], "dtype": "float32"}, {"name": "StatefulPartitionedCall/model/lat_conv5_block10_0_bn/FusedBatchNormV3/Offset", "shape": [928], "dtype": "float32"}, {"name": "StatefulPartitionedCall/model/ap_conv5_block10_0_bn/FusedBatchNormV3/Scaled", "shape": [928], "dtype": "float32"}, {"name": "StatefulPartitionedCall/model/ap_conv5_block10_0_bn/FusedBatchNormV3/Offset", "shape": [928], "dtype": "float32"}, {"name": "StatefulPartitionedCall/model/ob_conv5_block9_0_bn/FusedBatchNormV3/Scaled", "shape": [896], "dtype": "float32"}, {"name": "StatefulPartitionedCall/model/ob_conv5_block9_0_bn/FusedBatchNormV3/Offset", "shape": [896], "dtype": "float32"}, {"name": "StatefulPartitionedCall/model/lat_conv5_block9_0_bn/FusedBatchNormV3/Scaled", "shape": [896], "dtype": "float32"}, {"name": "StatefulPartitionedCall/model/lat_conv5_block9_0_bn/FusedBatchNormV3/Offset", "shape": [896], "dtype": "float32"}, {"name": "StatefulPartitionedCall/model/ap_conv5_block9_0_bn/FusedBatchNormV3/Scaled", "shape": [896], "dtype": "float32"}, {"name": "StatefulPartitionedCall/model/ap_conv5_block9_0_bn/FusedBatchNormV3/Offset", "shape": [896], "dtype": "float32"}, {"name": "StatefulPartitionedCall/model/ob_conv5_block8_0_bn/FusedBatchNormV3/Scaled", "shape": [864], "dtype": "float32"}, {"name": "StatefulPartitionedCall/model/ob_conv5_block8_0_bn/FusedBatchNormV3/Offset", "shape": [864], "dtype": "float32"}, {"name": "StatefulPartitionedCall/model/lat_conv5_block8_0_bn/FusedBatchNormV3/Scaled", "shape": [864], "dtype": "float32"}, {"name": "StatefulPartitionedCall/model/lat_conv5_block8_0_bn/FusedBatchNormV3/Offset", "shape": [864], "dtype": "float32"}, {"name": "StatefulPartitionedCall/model/ap_conv5_block8_0_bn/FusedBatchNormV3/Scaled", "shape": [864], "dtype": "float32"}, {"name": "StatefulPartitionedCall/model/ap_conv5_block8_0_bn/FusedBatchNormV3/Offset", "shape": [864], "dtype": "float32"}, {"name": "StatefulPartitionedCall/model/ob_conv5_block7_0_bn/FusedBatchNormV3/Scaled", "shape": [832], "dtype": "float32"}, {"name": "StatefulPartitionedCall/model/ob_conv5_block7_0_bn/FusedBatchNormV3/Offset", "shape": [832], "dtype": "float32"}, {"name": "StatefulPartitionedCall/model/lat_conv5_block7_0_bn/FusedBatchNormV3/Scaled", "shape": [832], "dtype": "float32"}, {"name": "StatefulPartitionedCall/model/lat_conv5_block7_0_bn/FusedBatchNormV3/Offset", "shape": [832], "dtype": "float32"}, {"name": "StatefulPartitionedCall/model/ap_conv5_block7_0_bn/FusedBatchNormV3/Scaled", "shape": [832], "dtype": "float32"}, {"name": "StatefulPartitionedCall/model/ap_conv5_block7_0_bn/FusedBatchNormV3/Offset", "shape": [832], "dtype": "float32"}, {"name": "StatefulPartitionedCall/model/ob_conv5_block6_0_bn/FusedBatchNormV3/Scaled", "shape": [800], "dtype": "float32"}, {"name": "StatefulPartitionedCall/model/ob_conv5_block6_0_bn/FusedBatchNormV3/Offset", "shape": [800], "dtype": "float32"}, {"name": "StatefulPartitionedCall/model/lat_conv5_block6_0_bn/FusedBatchNormV3/Scaled", "shape": [800], "dtype": "float32"}, {"name": "StatefulPartitionedCall/model/lat_conv5_block6_0_bn/FusedBatchNormV3/Offset", "shape": [800], "dtype": "float32"}, {"name": "StatefulPartitionedCall/model/ap_conv5_block6_0_bn/FusedBatchNormV3/Scaled", "shape": [800], "dtype": "float32"}, {"name": "StatefulPartitionedCall/model/ap_conv5_block6_0_bn/FusedBatchNormV3/Offset", "shape": [800], "dtype": "float32"}, {"name": "StatefulPartitionedCall/model/ob_conv5_block5_0_bn/FusedBatchNormV3/Scaled", "shape": [768], "dtype": "float32"}, {"name": "StatefulPartitionedCall/model/ob_conv5_block5_0_bn/FusedBatchNormV3/Offset", "shape": [768], "dtype": "float32"}, {"name": "StatefulPartitionedCall/model/lat_conv5_block5_0_bn/FusedBatchNormV3/Scaled", "shape": [768], "dtype": "float32"}, {"name": "StatefulPartitionedCall/model/lat_conv5_block5_0_bn/FusedBatchNormV3/Offset", "shape": [768], "dtype": "float32"}, {"name": "StatefulPartitionedCall/model/ap_conv5_block5_0_bn/FusedBatchNormV3/Scaled", "shape": [768], "dtype": "float32"}, {"name": "StatefulPartitionedCall/model/ap_conv5_block5_0_bn/FusedBatchNormV3/Offset", "shape": [768], "dtype": "float32"}, {"name": "StatefulPartitionedCall/model/ob_conv5_block4_0_bn/FusedBatchNormV3/Scaled", "shape": [736], "dtype": "float32"}, {"name": "StatefulPartitionedCall/model/ob_conv5_block4_0_bn/FusedBatchNormV3/Offset", "shape": [736], "dtype": "float32"}, {"name": "StatefulPartitionedCall/model/lat_conv5_block4_0_bn/FusedBatchNormV3/Scaled", "shape": [736], "dtype": "float32"}, {"name": "StatefulPartitionedCall/model/lat_conv5_block4_0_bn/FusedBatchNormV3/Offset", "shape": [736], "dtype": "float32"}, {"name": "StatefulPartitionedCall/model/ap_conv5_block4_0_bn/FusedBatchNormV3/Scaled", "shape": [736], "dtype": "float32"}, {"name": "StatefulPartitionedCall/model/ap_conv5_block4_0_bn/FusedBatchNormV3/Offset", "shape": [736], "dtype": "float32"}, {"name": "StatefulPartitionedCall/model/ob_conv5_block3_0_bn/FusedBatchNormV3/Scaled", "shape": [704], "dtype": "float32"}, {"name": "StatefulPartitionedCall/model/ob_conv5_block3_0_bn/FusedBatchNormV3/Offset", "shape": [704], "dtype": "float32"}, {"name": "StatefulPartitionedCall/model/lat_conv5_block3_0_bn/FusedBatchNormV3/Scaled", "shape": [704], "dtype": "float32"}, {"name": "StatefulPartitionedCall/model/lat_conv5_block3_0_bn/FusedBatchNormV3/Offset", "shape": [704], "dtype": "float32"}, {"name": "StatefulPartitionedCall/model/ap_conv5_block3_0_bn/FusedBatchNormV3/Scaled", "shape": [704], "dtype": "float32"}, {"name": "StatefulPartitionedCall/model/ap_conv5_block3_0_bn/FusedBatchNormV3/Offset", "shape": [704], "dtype": "float32"}, {"name": "StatefulPartitionedCall/model/ob_conv5_block2_0_bn/FusedBatchNormV3/Scaled", "shape": [672], "dtype": "float32"}, {"name": "StatefulPartitionedCall/model/ob_conv5_block2_0_bn/FusedBatchNormV3/Offset", "shape": [672], "dtype": "float32"}, {"name": "StatefulPartitionedCall/model/lat_conv5_block2_0_bn/FusedBatchNormV3/Scaled", "shape": [672], "dtype": "float32"}, {"name": "StatefulPartitionedCall/model/lat_conv5_block2_0_bn/FusedBatchNormV3/Offset", "shape": [672], "dtype": "float32"}, {"name": "StatefulPartitionedCall/model/ap_conv5_block2_0_bn/FusedBatchNormV3/Scaled", "shape": [672], "dtype": "float32"}, {"name": "StatefulPartitionedCall/model/ap_conv5_block2_0_bn/FusedBatchNormV3/Offset", "shape": [672], "dtype": "float32"}, {"name": "StatefulPartitionedCall/model/ob_conv5_block1_0_bn/FusedBatchNormV3/Scaled", "shape": [640], "dtype": "float32"}, {"name": "StatefulPartitionedCall/model/ob_conv5_block1_0_bn/FusedBatchNormV3/Offset", "shape": [640], "dtype": "float32"}, {"name": "StatefulPartitionedCall/model/ob_pool4_bn/FusedBatchNormV3/Scaled", "shape": [1280], "dtype": "float32"}, {"name": "StatefulPartitionedCall/model/ob_pool4_bn/FusedBatchNormV3/Offset", "shape": [1280], "dtype": "float32"}, {"name": "StatefulPartitionedCall/model/lat_conv5_block1_0_bn/FusedBatchNormV3/Scaled", "shape": [640], "dtype": "float32"}, {"name": "StatefulPartitionedCall/model/lat_conv5_block1_0_bn/FusedBatchNormV3/Offset", "shape": [640], "dtype": "float32"}, {"name": "StatefulPartitionedCall/model/lat_pool4_bn/FusedBatchNormV3/Scaled", "shape": [1280], "dtype": "float32"}, {"name": "StatefulPartitionedCall/model/lat_pool4_bn/FusedBatchNormV3/Offset", "shape": [1280], "dtype": "float32"}, {"name": "StatefulPartitionedCall/model/ap_conv5_block1_0_bn/FusedBatchNormV3/Scaled", "shape": [640], "dtype": "float32"}, {"name": "StatefulPartitionedCall/model/ap_conv5_block1_0_bn/FusedBatchNormV3/Offset", "shape": [640], "dtype": "float32"}, {"name": "StatefulPartitionedCall/model/ap_pool4_bn/FusedBatchNormV3/Scaled", "shape": [1280], "dtype": "float32"}, {"name": "StatefulPartitionedCall/model/ap_pool4_bn/FusedBatchNormV3/Offset", "shape": [1280], "dtype": "float32"}, {"name": "StatefulPartitionedCall/model/ob_conv4_block32_0_bn/FusedBatchNormV3/Scaled", "shape": [1248], "dtype": "float32"}, {"name": "StatefulPartitionedCall/model/ob_conv4_block32_0_bn/FusedBatchNormV3/Offset", "shape": [1248], "dtype": "float32"}, {"name": "StatefulPartitionedCall/model/lat_conv4_block32_0_bn/FusedBatchNormV3/Scaled", "shape": [1248], "dtype": "float32"}, {"name": "StatefulPartitionedCall/model/lat_conv4_block32_0_bn/FusedBatchNormV3/Offset", "shape": [1248], "dtype": "float32"}, {"name": "StatefulPartitionedCall/model/ap_conv4_block32_0_bn/FusedBatchNormV3/Scaled", "shape": [1248], "dtype": "float32"}, {"name": "StatefulPartitionedCall/model/ap_conv4_block32_0_bn/FusedBatchNormV3/Offset", "shape": [1248], "dtype": "float32"}, {"name": "StatefulPartitionedCall/model/ob_conv4_block31_0_bn/FusedBatchNormV3/Scaled", "shape": [1216], "dtype": "float32"}, {"name": "StatefulPartitionedCall/model/ob_conv4_block31_0_bn/FusedBatchNormV3/Offset", "shape": [1216], "dtype": "float32"}, {"name": "StatefulPartitionedCall/model/lat_conv4_block31_0_bn/FusedBatchNormV3/Scaled", "shape": [1216], "dtype": "float32"}, {"name": "StatefulPartitionedCall/model/lat_conv4_block31_0_bn/FusedBatchNormV3/Offset", "shape": [1216], "dtype": "float32"}, {"name": "StatefulPartitionedCall/model/ap_conv4_block31_0_bn/FusedBatchNormV3/Scaled", "shape": [1216], "dtype": "float32"}, {"name": "StatefulPartitionedCall/model/ap_conv4_block31_0_bn/FusedBatchNormV3/Offset", "shape": [1216], "dtype": "float32"}, {"name": "StatefulPartitionedCall/model/ob_conv4_block30_0_bn/FusedBatchNormV3/Scaled", "shape": [1184], "dtype": "float32"}, {"name": "StatefulPartitionedCall/model/ob_conv4_block30_0_bn/FusedBatchNormV3/Offset", "shape": [1184], "dtype": "float32"}, {"name": "StatefulPartitionedCall/model/lat_conv4_block30_0_bn/FusedBatchNormV3/Scaled", "shape": [1184], "dtype": "float32"}, {"name": "StatefulPartitionedCall/model/lat_conv4_block30_0_bn/FusedBatchNormV3/Offset", "shape": [1184], "dtype": "float32"}, {"name": "StatefulPartitionedCall/model/ap_conv4_block30_0_bn/FusedBatchNormV3/Scaled", "shape": [1184], "dtype": "float32"}, {"name": "StatefulPartitionedCall/model/ap_conv4_block30_0_bn/FusedBatchNormV3/Offset", "shape": [1184], "dtype": "float32"}, {"name": "StatefulPartitionedCall/model/ob_conv4_block29_0_bn/FusedBatchNormV3/Scaled", "shape": [1152], "dtype": "float32"}, {"name": "StatefulPartitionedCall/model/ob_conv4_block29_0_bn/FusedBatchNormV3/Offset", "shape": [1152], "dtype": "float32"}, {"name": "StatefulPartitionedCall/model/lat_conv4_block29_0_bn/FusedBatchNormV3/Scaled", "shape": [1152], "dtype": "float32"}, {"name": "StatefulPartitionedCall/model/lat_conv4_block29_0_bn/FusedBatchNormV3/Offset", "shape": [1152], "dtype": "float32"}, {"name": "StatefulPartitionedCall/model/ap_conv4_block29_0_bn/FusedBatchNormV3/Scaled", "shape": [1152], "dtype": "float32"}, {"name": "StatefulPartitionedCall/model/ap_conv4_block29_0_bn/FusedBatchNormV3/Offset", "shape": [1152], "dtype": "float32"}, {"name": "StatefulPartitionedCall/model/ob_conv4_block28_0_bn/FusedBatchNormV3/Scaled", "shape": [1120], "dtype": "float32"}, {"name": "StatefulPartitionedCall/model/ob_conv4_block28_0_bn/FusedBatchNormV3/Offset", "shape": [1120], "dtype": "float32"}, {"name": "StatefulPartitionedCall/model/lat_conv4_block28_0_bn/FusedBatchNormV3/Scaled", "shape": [1120], "dtype": "float32"}, {"name": "StatefulPartitionedCall/model/lat_conv4_block28_0_bn/FusedBatchNormV3/Offset", "shape": [1120], "dtype": "float32"}, {"name": "StatefulPartitionedCall/model/ap_conv4_block28_0_bn/FusedBatchNormV3/Scaled", "shape": [1120], "dtype": "float32"}, {"name": "StatefulPartitionedCall/model/ap_conv4_block28_0_bn/FusedBatchNormV3/Offset", "shape": [1120], "dtype": "float32"}, {"name": "StatefulPartitionedCall/model/ob_conv4_block27_0_bn/FusedBatchNormV3/Scaled", "shape": [1088], "dtype": "float32"}, {"name": "StatefulPartitionedCall/model/ob_conv4_block27_0_bn/FusedBatchNormV3/Offset", "shape": [1088], "dtype": "float32"}, {"name": "StatefulPartitionedCall/model/lat_conv4_block27_0_bn/FusedBatchNormV3/Scaled", "shape": [1088], "dtype": "float32"}, {"name": "StatefulPartitionedCall/model/lat_conv4_block27_0_bn/FusedBatchNormV3/Offset", "shape": [1088], "dtype": "float32"}, {"name": "StatefulPartitionedCall/model/ap_conv4_block27_0_bn/FusedBatchNormV3/Scaled", "shape": [1088], "dtype": "float32"}, {"name": "StatefulPartitionedCall/model/ap_conv4_block27_0_bn/FusedBatchNormV3/Offset", "shape": [1088], "dtype": "float32"}, {"name": "StatefulPartitionedCall/model/ob_conv4_block26_0_bn/FusedBatchNormV3/Scaled", "shape": [1056], "dtype": "float32"}, {"name": "StatefulPartitionedCall/model/ob_conv4_block26_0_bn/FusedBatchNormV3/Offset", "shape": [1056], "dtype": "float32"}, {"name": "StatefulPartitionedCall/model/lat_conv4_block26_0_bn/FusedBatchNormV3/Scaled", "shape": [1056], "dtype": "float32"}, {"name": "StatefulPartitionedCall/model/lat_conv4_block26_0_bn/FusedBatchNormV3/Offset", "shape": [1056], "dtype": "float32"}, {"name": "StatefulPartitionedCall/model/ap_conv4_block26_0_bn/FusedBatchNormV3/Scaled", "shape": [1056], "dtype": "float32"}, {"name": "StatefulPartitionedCall/model/ap_conv4_block26_0_bn/FusedBatchNormV3/Offset", "shape": [1056], "dtype": "float32"}, {"name": "StatefulPartitionedCall/model/ob_conv4_block25_0_bn/FusedBatchNormV3/Scaled", "shape": [1024], "dtype": "float32"}, {"name": "StatefulPartitionedCall/model/ob_conv4_block25_0_bn/FusedBatchNormV3/Offset", "shape": [1024], "dtype": "float32"}, {"name": "StatefulPartitionedCall/model/lat_conv4_block25_0_bn/FusedBatchNormV3/Scaled", "shape": [1024], "dtype": "float32"}, {"name": "StatefulPartitionedCall/model/lat_conv4_block25_0_bn/FusedBatchNormV3/Offset", "shape": [1024], "dtype": "float32"}, {"name": "StatefulPartitionedCall/model/ap_conv4_block25_0_bn/FusedBatchNormV3/Scaled", "shape": [1024], "dtype": "float32"}, {"name": "StatefulPartitionedCall/model/ap_conv4_block25_0_bn/FusedBatchNormV3/Offset", "shape": [1024], "dtype": "float32"}, {"name": "StatefulPartitionedCall/model/ob_conv4_block24_0_bn/FusedBatchNormV3/Scaled", "shape": [992], "dtype": "float32"}, {"name": "StatefulPartitionedCall/model/ob_conv4_block24_0_bn/FusedBatchNormV3/Offset", "shape": [992], "dtype": "float32"}, {"name": "StatefulPartitionedCall/model/lat_conv4_block24_0_bn/FusedBatchNormV3/Scaled", "shape": [992], "dtype": "float32"}, {"name": "StatefulPartitionedCall/model/lat_conv4_block24_0_bn/FusedBatchNormV3/Offset", "shape": [992], "dtype": "float32"}, {"name": "StatefulPartitionedCall/model/ap_conv4_block24_0_bn/FusedBatchNormV3/Scaled", "shape": [992], "dtype": "float32"}, {"name": "StatefulPartitionedCall/model/ap_conv4_block24_0_bn/FusedBatchNormV3/Offset", "shape": [992], "dtype": "float32"}, {"name": "StatefulPartitionedCall/model/ob_conv4_block23_0_bn/FusedBatchNormV3/Scaled", "shape": [960], "dtype": "float32"}, {"name": "StatefulPartitionedCall/model/ob_conv4_block23_0_bn/FusedBatchNormV3/Offset", "shape": [960], "dtype": "float32"}, {"name": "StatefulPartitionedCall/model/lat_conv4_block23_0_bn/FusedBatchNormV3/Scaled", "shape": [960], "dtype": "float32"}, {"name": "StatefulPartitionedCall/model/lat_conv4_block23_0_bn/FusedBatchNormV3/Offset", "shape": [960], "dtype": "float32"}, {"name": "StatefulPartitionedCall/model/ap_conv4_block23_0_bn/FusedBatchNormV3/Scaled", "shape": [960], "dtype": "float32"}, {"name": "StatefulPartitionedCall/model/ap_conv4_block23_0_bn/FusedBatchNormV3/Offset", "shape": [960], "dtype": "float32"}, {"name": "StatefulPartitionedCall/model/ob_conv4_block22_0_bn/FusedBatchNormV3/Scaled", "shape": [928], "dtype": "float32"}, {"name": "StatefulPartitionedCall/model/ob_conv4_block22_0_bn/FusedBatchNormV3/Offset", "shape": [928], "dtype": "float32"}, {"name": "StatefulPartitionedCall/model/lat_conv4_block22_0_bn/FusedBatchNormV3/Scaled", "shape": [928], "dtype": "float32"}, {"name": "StatefulPartitionedCall/model/lat_conv4_block22_0_bn/FusedBatchNormV3/Offset", "shape": [928], "dtype": "float32"}, {"name": "StatefulPartitionedCall/model/ap_conv4_block22_0_bn/FusedBatchNormV3/Scaled", "shape": [928], "dtype": "float32"}, {"name": "StatefulPartitionedCall/model/ap_conv4_block22_0_bn/FusedBatchNormV3/Offset", "shape": [928], "dtype": "float32"}, {"name": "StatefulPartitionedCall/model/ob_conv4_block21_0_bn/FusedBatchNormV3/Scaled", "shape": [896], "dtype": "float32"}, {"name": "StatefulPartitionedCall/model/ob_conv4_block21_0_bn/FusedBatchNormV3/Offset", "shape": [896], "dtype": "float32"}, {"name": "StatefulPartitionedCall/model/lat_conv4_block21_0_bn/FusedBatchNormV3/Scaled", "shape": [896], "dtype": "float32"}, {"name": "StatefulPartitionedCall/model/lat_conv4_block21_0_bn/FusedBatchNormV3/Offset", "shape": [896], "dtype": "float32"}, {"name": "StatefulPartitionedCall/model/ap_conv4_block21_0_bn/FusedBatchNormV3/Scaled", "shape": [896], "dtype": "float32"}, {"name": "StatefulPartitionedCall/model/ap_conv4_block21_0_bn/FusedBatchNormV3/Offset", "shape": [896], "dtype": "float32"}, {"name": "StatefulPartitionedCall/model/ob_conv4_block20_0_bn/FusedBatchNormV3/Scaled", "shape": [864], "dtype": "float32"}, {"name": "StatefulPartitionedCall/model/ob_conv4_block20_0_bn/FusedBatchNormV3/Offset", "shape": [864], "dtype": "float32"}, {"name": "StatefulPartitionedCall/model/lat_conv4_block20_0_bn/FusedBatchNormV3/Scaled", "shape": [864], "dtype": "float32"}, {"name": "StatefulPartitionedCall/model/lat_conv4_block20_0_bn/FusedBatchNormV3/Offset", "shape": [864], "dtype": "float32"}, {"name": "StatefulPartitionedCall/model/ap_conv4_block20_0_bn/FusedBatchNormV3/Scaled", "shape": [864], "dtype": "float32"}, {"name": "StatefulPartitionedCall/model/ap_conv4_block20_0_bn/FusedBatchNormV3/Offset", "shape": [864], "dtype": "float32"}, {"name": "StatefulPartitionedCall/model/ob_conv4_block19_0_bn/FusedBatchNormV3/Scaled", "shape": [832], "dtype": "float32"}, {"name": "StatefulPartitionedCall/model/ob_conv4_block19_0_bn/FusedBatchNormV3/Offset", "shape": [832], "dtype": "float32"}, {"name": "StatefulPartitionedCall/model/lat_conv4_block19_0_bn/FusedBatchNormV3/Scaled", "shape": [832], "dtype": "float32"}, {"name": "StatefulPartitionedCall/model/lat_conv4_block19_0_bn/FusedBatchNormV3/Offset", "shape": [832], "dtype": "float32"}, {"name": "StatefulPartitionedCall/model/ap_conv4_block19_0_bn/FusedBatchNormV3/Scaled", "shape": [832], "dtype": "float32"}, {"name": "StatefulPartitionedCall/model/ap_conv4_block19_0_bn/FusedBatchNormV3/Offset", "shape": [832], "dtype": "float32"}, {"name": "StatefulPartitionedCall/model/ob_conv4_block18_0_bn/FusedBatchNormV3/Scaled", "shape": [800], "dtype": "float32"}, {"name": "StatefulPartitionedCall/model/ob_conv4_block18_0_bn/FusedBatchNormV3/Offset", "shape": [800], "dtype": "float32"}, {"name": "StatefulPartitionedCall/model/lat_conv4_block18_0_bn/FusedBatchNormV3/Scaled", "shape": [800], "dtype": "float32"}, {"name": "StatefulPartitionedCall/model/lat_conv4_block18_0_bn/FusedBatchNormV3/Offset", "shape": [800], "dtype": "float32"}, {"name": "StatefulPartitionedCall/model/ap_conv4_block18_0_bn/FusedBatchNormV3/Scaled", "shape": [800], "dtype": "float32"}, {"name": "StatefulPartitionedCall/model/ap_conv4_block18_0_bn/FusedBatchNormV3/Offset", "shape": [800], "dtype": "float32"}, {"name": "StatefulPartitionedCall/model/ob_conv4_block17_0_bn/FusedBatchNormV3/Scaled", "shape": [768], "dtype": "float32"}, {"name": "StatefulPartitionedCall/model/ob_conv4_block17_0_bn/FusedBatchNormV3/Offset", "shape": [768], "dtype": "float32"}, {"name": "StatefulPartitionedCall/model/lat_conv4_block17_0_bn/FusedBatchNormV3/Scaled", "shape": [768], "dtype": "float32"}, {"name": "StatefulPartitionedCall/model/lat_conv4_block17_0_bn/FusedBatchNormV3/Offset", "shape": [768], "dtype": "float32"}, {"name": "StatefulPartitionedCall/model/ap_conv4_block17_0_bn/FusedBatchNormV3/Scaled", "shape": [768], "dtype": "float32"}, {"name": "StatefulPartitionedCall/model/ap_conv4_block17_0_bn/FusedBatchNormV3/Offset", "shape": [768], "dtype": "float32"}, {"name": "StatefulPartitionedCall/model/ob_conv4_block16_0_bn/FusedBatchNormV3/Scaled", "shape": [736], "dtype": "float32"}, {"name": "StatefulPartitionedCall/model/ob_conv4_block16_0_bn/FusedBatchNormV3/Offset", "shape": [736], "dtype": "float32"}, {"name": "StatefulPartitionedCall/model/lat_conv4_block16_0_bn/FusedBatchNormV3/Scaled", "shape": [736], "dtype": "float32"}, {"name": "StatefulPartitionedCall/model/lat_conv4_block16_0_bn/FusedBatchNormV3/Offset", "shape": [736], "dtype": "float32"}, {"name": "StatefulPartitionedCall/model/ap_conv4_block16_0_bn/FusedBatchNormV3/Scaled", "shape": [736], "dtype": "float32"}, {"name": "StatefulPartitionedCall/model/ap_conv4_block16_0_bn/FusedBatchNormV3/Offset", "shape": [736], "dtype": "float32"}, {"name": "StatefulPartitionedCall/model/ob_conv4_block15_0_bn/FusedBatchNormV3/Scaled", "shape": [704], "dtype": "float32"}, {"name": "StatefulPartitionedCall/model/ob_conv4_block15_0_bn/FusedBatchNormV3/Offset", "shape": [704], "dtype": "float32"}, {"name": "StatefulPartitionedCall/model/lat_conv4_block15_0_bn/FusedBatchNormV3/Scaled", "shape": [704], "dtype": "float32"}, {"name": "StatefulPartitionedCall/model/lat_conv4_block15_0_bn/FusedBatchNormV3/Offset", "shape": [704], "dtype": "float32"}, {"name": "StatefulPartitionedCall/model/ap_conv4_block15_0_bn/FusedBatchNormV3/Scaled", "shape": [704], "dtype": "float32"}, {"name": "StatefulPartitionedCall/model/ap_conv4_block15_0_bn/FusedBatchNormV3/Offset", "shape": [704], "dtype": "float32"}, {"name": "StatefulPartitionedCall/model/ob_conv4_block14_0_bn/FusedBatchNormV3/Scaled", "shape": [672], "dtype": "float32"}, {"name": "StatefulPartitionedCall/model/ob_conv4_block14_0_bn/FusedBatchNormV3/Offset", "shape": [672], "dtype": "float32"}, {"name": "StatefulPartitionedCall/model/lat_conv4_block14_0_bn/FusedBatchNormV3/Scaled", "shape": [672], "dtype": "float32"}, {"name": "StatefulPartitionedCall/model/lat_conv4_block14_0_bn/FusedBatchNormV3/Offset", "shape": [672], "dtype": "float32"}, {"name": "StatefulPartitionedCall/model/ap_conv4_block14_0_bn/FusedBatchNormV3/Scaled", "shape": [672], "dtype": "float32"}, {"name": "StatefulPartitionedCall/model/ap_conv4_block14_0_bn/FusedBatchNormV3/Offset", "shape": [672], "dtype": "float32"}, {"name": "StatefulPartitionedCall/model/ob_conv4_block13_0_bn/FusedBatchNormV3/Scaled", "shape": [640], "dtype": "float32"}, {"name": "StatefulPartitionedCall/model/ob_conv4_block13_0_bn/FusedBatchNormV3/Offset", "shape": [640], "dtype": "float32"}, {"name": "StatefulPartitionedCall/model/lat_conv4_block13_0_bn/FusedBatchNormV3/Scaled", "shape": [640], "dtype": "float32"}, {"name": "StatefulPartitionedCall/model/lat_conv4_block13_0_bn/FusedBatchNormV3/Offset", "shape": [640], "dtype": "float32"}, {"name": "StatefulPartitionedCall/model/ap_conv4_block13_0_bn/FusedBatchNormV3/Scaled", "shape": [640], "dtype": "float32"}, {"name": "StatefulPartitionedCall/model/ap_conv4_block13_0_bn/FusedBatchNormV3/Offset", "shape": [640], "dtype": "float32"}, {"name": "StatefulPartitionedCall/model/ob_conv4_block12_0_bn/FusedBatchNormV3/Scaled", "shape": [608], "dtype": "float32"}, {"name": "StatefulPartitionedCall/model/ob_conv4_block12_0_bn/FusedBatchNormV3/Offset", "shape": [608], "dtype": "float32"}, {"name": "StatefulPartitionedCall/model/lat_conv4_block12_0_bn/FusedBatchNormV3/Scaled", "shape": [608], "dtype": "float32"}, {"name": "StatefulPartitionedCall/model/lat_conv4_block12_0_bn/FusedBatchNormV3/Offset", "shape": [608], "dtype": "float32"}, {"name": "StatefulPartitionedCall/model/ap_conv4_block12_0_bn/FusedBatchNormV3/Scaled", "shape": [608], "dtype": "float32"}, {"name": "StatefulPartitionedCall/model/ap_conv4_block12_0_bn/FusedBatchNormV3/Offset", "shape": [608], "dtype": "float32"}, {"name": "StatefulPartitionedCall/model/ob_conv4_block11_0_bn/FusedBatchNormV3/Scaled", "shape": [576], "dtype": "float32"}, {"name": "StatefulPartitionedCall/model/ob_conv4_block11_0_bn/FusedBatchNormV3/Offset", "shape": [576], "dtype": "float32"}, {"name": "StatefulPartitionedCall/model/lat_conv4_block11_0_bn/FusedBatchNormV3/Scaled", "shape": [576], "dtype": "float32"}, {"name": "StatefulPartitionedCall/model/lat_conv4_block11_0_bn/FusedBatchNormV3/Offset", "shape": [576], "dtype": "float32"}, {"name": "StatefulPartitionedCall/model/ap_conv4_block11_0_bn/FusedBatchNormV3/Scaled", "shape": [576], "dtype": "float32"}, {"name": "StatefulPartitionedCall/model/ap_conv4_block11_0_bn/FusedBatchNormV3/Offset", "shape": [576], "dtype": "float32"}, {"name": "StatefulPartitionedCall/model/ob_conv4_block10_0_bn/FusedBatchNormV3/Scaled", "shape": [544], "dtype": "float32"}, {"name": "StatefulPartitionedCall/model/ob_conv4_block10_0_bn/FusedBatchNormV3/Offset", "shape": [544], "dtype": "float32"}, {"name": "StatefulPartitionedCall/model/lat_conv4_block10_0_bn/FusedBatchNormV3/Scaled", "shape": [544], "dtype": "float32"}, {"name": "StatefulPartitionedCall/model/lat_conv4_block10_0_bn/FusedBatchNormV3/Offset", "shape": [544], "dtype": "float32"}, {"name": "StatefulPartitionedCall/model/ap_conv4_block10_0_bn/FusedBatchNormV3/Scaled", "shape": [544], "dtype": "float32"}, {"name": "StatefulPartitionedCall/model/ap_conv4_block10_0_bn/FusedBatchNormV3/Offset", "shape": [544], "dtype": "float32"}, {"name": "StatefulPartitionedCall/model/ob_conv4_block9_0_bn/FusedBatchNormV3/Scaled", "shape": [512], "dtype": "float32"}, {"name": "StatefulPartitionedCall/model/ob_conv4_block9_0_bn/FusedBatchNormV3/Offset", "shape": [512], "dtype": "float32"}, {"name": "StatefulPartitionedCall/model/lat_conv4_block9_0_bn/FusedBatchNormV3/Scaled", "shape": [512], "dtype": "float32"}, {"name": "StatefulPartitionedCall/model/lat_conv4_block9_0_bn/FusedBatchNormV3/Offset", "shape": [512], "dtype": "float32"}, {"name": "StatefulPartitionedCall/model/ap_conv4_block9_0_bn/FusedBatchNormV3/Scaled", "shape": [512], "dtype": "float32"}, {"name": "StatefulPartitionedCall/model/ap_conv4_block9_0_bn/FusedBatchNormV3/Offset", "shape": [512], "dtype": "float32"}, {"name": "StatefulPartitionedCall/model/ob_conv4_block8_0_bn/FusedBatchNormV3/Scaled", "shape": [480], "dtype": "float32"}, {"name": "StatefulPartitionedCall/model/ob_conv4_block8_0_bn/FusedBatchNormV3/Offset", "shape": [480], "dtype": "float32"}, {"name": "StatefulPartitionedCall/model/lat_conv4_block8_0_bn/FusedBatchNormV3/Scaled", "shape": [480], "dtype": "float32"}, {"name": "StatefulPartitionedCall/model/lat_conv4_block8_0_bn/FusedBatchNormV3/Offset", "shape": [480], "dtype": "float32"}, {"name": "StatefulPartitionedCall/model/ap_conv4_block8_0_bn/FusedBatchNormV3/Scaled", "shape": [480], "dtype": "float32"}, {"name": "StatefulPartitionedCall/model/ap_conv4_block8_0_bn/FusedBatchNormV3/Offset", "shape": [480], "dtype": "float32"}, {"name": "StatefulPartitionedCall/model/ob_conv4_block7_0_bn/FusedBatchNormV3/Scaled", "shape": [448], "dtype": "float32"}, {"name": "StatefulPartitionedCall/model/ob_conv4_block7_0_bn/FusedBatchNormV3/Offset", "shape": [448], "dtype": "float32"}, {"name": "StatefulPartitionedCall/model/lat_conv4_block7_0_bn/FusedBatchNormV3/Scaled", "shape": [448], "dtype": "float32"}, {"name": "StatefulPartitionedCall/model/lat_conv4_block7_0_bn/FusedBatchNormV3/Offset", "shape": [448], "dtype": "float32"}, {"name": "StatefulPartitionedCall/model/ap_conv4_block7_0_bn/FusedBatchNormV3/Scaled", "shape": [448], "dtype": "float32"}, {"name": "StatefulPartitionedCall/model/ap_conv4_block7_0_bn/FusedBatchNormV3/Offset", "shape": [448], "dtype": "float32"}, {"name": "StatefulPartitionedCall/model/ob_conv4_block6_0_bn/FusedBatchNormV3/Scaled", "shape": [416], "dtype": "float32"}, {"name": "StatefulPartitionedCall/model/ob_conv4_block6_0_bn/FusedBatchNormV3/Offset", "shape": [416], "dtype": "float32"}, {"name": "StatefulPartitionedCall/model/lat_conv4_block6_0_bn/FusedBatchNormV3/Scaled", "shape": [416], "dtype": "float32"}, {"name": "StatefulPartitionedCall/model/lat_conv4_block6_0_bn/FusedBatchNormV3/Offset", "shape": [416], "dtype": "float32"}, {"name": "StatefulPartitionedCall/model/ap_conv4_block6_0_bn/FusedBatchNormV3/Scaled", "shape": [416], "dtype": "float32"}, {"name": "StatefulPartitionedCall/model/ap_conv4_block6_0_bn/FusedBatchNormV3/Offset", "shape": [416], "dtype": "float32"}, {"name": "StatefulPartitionedCall/model/ob_conv4_block5_0_bn/FusedBatchNormV3/Scaled", "shape": [384], "dtype": "float32"}, {"name": "StatefulPartitionedCall/model/ob_conv4_block5_0_bn/FusedBatchNormV3/Offset", "shape": [384], "dtype": "float32"}, {"name": "StatefulPartitionedCall/model/lat_conv4_block5_0_bn/FusedBatchNormV3/Scaled", "shape": [384], "dtype": "float32"}, {"name": "StatefulPartitionedCall/model/lat_conv4_block5_0_bn/FusedBatchNormV3/Offset", "shape": [384], "dtype": "float32"}, {"name": "StatefulPartitionedCall/model/ap_conv4_block5_0_bn/FusedBatchNormV3/Scaled", "shape": [384], "dtype": "float32"}, {"name": "StatefulPartitionedCall/model/ap_conv4_block5_0_bn/FusedBatchNormV3/Offset", "shape": [384], "dtype": "float32"}, {"name": "StatefulPartitionedCall/model/ob_conv4_block4_0_bn/FusedBatchNormV3/Scaled", "shape": [352], "dtype": "float32"}]}]}